…
args = Namespace(save_root='./results/try', img_root='./datasets', s_init='', t_model='checkpoint/swinoff-s-22pretrained-4-ckpt.t7', print_freq=50, epochs=200, batch_size=128, lr=0.1, momentum=0.9, weight_decay=0.0001, num_class=10, cuda=1, patch=4, dimhead=512, convkernel=8, size='32', seed=2, note='try', data_name='CIFAR10', t_name='swinoff-s', s_name='swinpool', kd_mode='logits', lambda_kd=1.0, T=4.0, p=2.0, w_dist=25.0, w_angle=50.0, m=2.0, gamma=0.4, P_order=2, w_irg_vert=0.1, w_irg_edge=5.0, w_irg_tran=5.0, sf=1.0, init_var=5.0, att_f=1.0)
unparsed_args = []
----------- Network Initialization --------------
Student: DataParallel(
  (module): SwinTransformer(
    (patch_embed): PatchEmbed(
      (proj): Conv2d(3, 96, kernel_size=(4, 4), stride=(4, 4))
      (norm): LayerNorm((96,), eps=1e-05, elementwise_affine=True)
    )
    (pos_drop): Dropout(p=0.0, inplace=False)
    (layers): ModuleList(
      (0): BasicLayer(
        dim=96, input_resolution=(8, 8), depth=2
        (blocks): ModuleList(
          (0): SwinTransformerBlock(
            dim=96, input_resolution=(8, 8), num_heads=3, window_size=4, shift_size=0, mlp_ratio=4.0
            (norm1): LayerNorm((96,), eps=1e-05, elementwise_affine=True)
            (drop_path): Identity()
            (norm2): LayerNorm((96,), eps=1e-05, elementwise_affine=True)
            (mlp): Mlp(
              (fc1): Linear(in_features=96, out_features=384, bias=True)
              (act): GELU(approximate='none')
              (fc2): Linear(in_features=384, out_features=96, bias=True)
              (drop): Dropout(p=0.0, inplace=False)
            )
            (token_mixer): Pooling(
              (pool): AvgPool2d(kernel_size=3, stride=1, padding=1)
            )
          )
          (1): SwinTransformerBlock(
            dim=96, input_resolution=(8, 8), num_heads=3, window_size=4, shift_size=2, mlp_ratio=4.0
            (norm1): LayerNorm((96,), eps=1e-05, elementwise_affine=True)
            (drop_path): DropPath(drop_prob=0.009)
            (norm2): LayerNorm((96,), eps=1e-05, elementwise_affine=True)
            (mlp): Mlp(
              (fc1): Linear(in_features=96, out_features=384, bias=True)
              (act): GELU(approximate='none')
              (fc2): Linear(in_features=384, out_features=96, bias=True)
              (drop): Dropout(p=0.0, inplace=False)
            )
            (token_mixer): Pooling(
              (pool): AvgPool2d(kernel_size=3, stride=1, padding=1)
            )
          )
        )
        (downsample): PatchMerging(
          input_resolution=(8, 8), dim=96
          (reduction): Linear(in_features=384, out_features=192, bias=False)
          (norm): LayerNorm((384,), eps=1e-05, elementwise_affine=True)
        )
      )
      (1): BasicLayer(
        dim=192, input_resolution=(4, 4), depth=2
        (blocks): ModuleList(
          (0): SwinTransformerBlock(
            dim=192, input_resolution=(4, 4), num_heads=6, window_size=4, shift_size=0, mlp_ratio=4.0
            (norm1): LayerNorm((192,), eps=1e-05, elementwise_affine=True)
            (drop_path): DropPath(drop_prob=0.018)
            (norm2): LayerNorm((192,), eps=1e-05, elementwise_affine=True)
            (mlp): Mlp(
              (fc1): Linear(in_features=192, out_features=768, bias=True)
              (act): GELU(approximate='none')
              (fc2): Linear(in_features=768, out_features=192, bias=True)
              (drop): Dropout(p=0.0, inplace=False)
            )
            (token_mixer): Pooling(
              (pool): AvgPool2d(kernel_size=3, stride=1, padding=1)
            )
          )
          (1): SwinTransformerBlock(
            dim=192, input_resolution=(4, 4), num_heads=6, window_size=4, shift_size=0, mlp_ratio=4.0
            (norm1): LayerNorm((192,), eps=1e-05, elementwise_affine=True)
            (drop_path): DropPath(drop_prob=0.027)
            (norm2): LayerNorm((192,), eps=1e-05, elementwise_affine=True)
            (mlp): Mlp(
              (fc1): Linear(in_features=192, out_features=768, bias=True)
              (act): GELU(approximate='none')
              (fc2): Linear(in_features=768, out_features=192, bias=True)
              (drop): Dropout(p=0.0, inplace=False)
            )
            (token_mixer): Pooling(
              (pool): AvgPool2d(kernel_size=3, stride=1, padding=1)
            )
          )
        )
        (downsample): PatchMerging(
          input_resolution=(4, 4), dim=192
          (reduction): Linear(in_features=768, out_features=384, bias=False)
          (norm): LayerNorm((768,), eps=1e-05, elementwise_affine=True)
        )
      )
      (2): BasicLayer(
        dim=384, input_resolution=(2, 2), depth=6
        (blocks): ModuleList(
          (0): SwinTransformerBlock(
            dim=384, input_resolution=(2, 2), num_heads=12, window_size=2, shift_size=0, mlp_ratio=4.0
            (norm1): LayerNorm((384,), eps=1e-05, elementwise_affine=True)
            (drop_path): DropPath(drop_prob=0.036)
            (norm2): LayerNorm((384,), eps=1e-05, elementwise_affine=True)
            (mlp): Mlp(
              (fc1): Linear(in_features=384, out_features=1536, bias=True)
              (act): GELU(approximate='none')
              (fc2): Linear(in_features=1536, out_features=384, bias=True)
              (drop): Dropout(p=0.0, inplace=False)
            )
            (token_mixer): Pooling(
              (pool): AvgPool2d(kernel_size=3, stride=1, padding=1)
            )
          )
          (1): SwinTransformerBlock(
            dim=384, input_resolution=(2, 2), num_heads=12, window_size=2, shift_size=0, mlp_ratio=4.0
            (norm1): LayerNorm((384,), eps=1e-05, elementwise_affine=True)
            (drop_path): DropPath(drop_prob=0.045)
            (norm2): LayerNorm((384,), eps=1e-05, elementwise_affine=True)
            (mlp): Mlp(
              (fc1): Linear(in_features=384, out_features=1536, bias=True)
              (act): GELU(approximate='none')
              (fc2): Linear(in_features=1536, out_features=384, bias=True)
              (drop): Dropout(p=0.0, inplace=False)
            )
            (token_mixer): Pooling(
              (pool): AvgPool2d(kernel_size=3, stride=1, padding=1)
            )
          )
          (2): SwinTransformerBlock(
            dim=384, input_resolution=(2, 2), num_heads=12, window_size=2, shift_size=0, mlp_ratio=4.0
            (norm1): LayerNorm((384,), eps=1e-05, elementwise_affine=True)
            (drop_path): DropPath(drop_prob=0.055)
            (norm2): LayerNorm((384,), eps=1e-05, elementwise_affine=True)
            (mlp): Mlp(
              (fc1): Linear(in_features=384, out_features=1536, bias=True)
              (act): GELU(approximate='none')
              (fc2): Linear(in_features=1536, out_features=384, bias=True)
              (drop): Dropout(p=0.0, inplace=False)
            )
            (token_mixer): Pooling(
              (pool): AvgPool2d(kernel_size=3, stride=1, padding=1)
            )
          )
          (3): SwinTransformerBlock(
            dim=384, input_resolution=(2, 2), num_heads=12, window_size=2, shift_size=0, mlp_ratio=4.0
            (norm1): LayerNorm((384,), eps=1e-05, elementwise_affine=True)
            (drop_path): DropPath(drop_prob=0.064)
            (norm2): LayerNorm((384,), eps=1e-05, elementwise_affine=True)
            (mlp): Mlp(
              (fc1): Linear(in_features=384, out_features=1536, bias=True)
              (act): GELU(approximate='none')
              (fc2): Linear(in_features=1536, out_features=384, bias=True)
              (drop): Dropout(p=0.0, inplace=False)
            )
            (token_mixer): Pooling(
              (pool): AvgPool2d(kernel_size=3, stride=1, padding=1)
            )
          )
          (4): SwinTransformerBlock(
            dim=384, input_resolution=(2, 2), num_heads=12, window_size=2, shift_size=0, mlp_ratio=4.0
            (norm1): LayerNorm((384,), eps=1e-05, elementwise_affine=True)
            (drop_path): DropPath(drop_prob=0.073)
            (norm2): LayerNorm((384,), eps=1e-05, elementwise_affine=True)
            (mlp): Mlp(
              (fc1): Linear(in_features=384, out_features=1536, bias=True)
              (act): GELU(approximate='none')
              (fc2): Linear(in_features=1536, out_features=384, bias=True)
              (drop): Dropout(p=0.0, inplace=False)
            )
            (token_mixer): Pooling(
              (pool): AvgPool2d(kernel_size=3, stride=1, padding=1)
            )
          )
          (5): SwinTransformerBlock(
            dim=384, input_resolution=(2, 2), num_heads=12, window_size=2, shift_size=0, mlp_ratio=4.0
            (norm1): LayerNorm((384,), eps=1e-05, elementwise_affine=True)
            (drop_path): DropPath(drop_prob=0.082)
            (norm2): LayerNorm((384,), eps=1e-05, elementwise_affine=True)
            (mlp): Mlp(
              (fc1): Linear(in_features=384, out_features=1536, bias=True)
              (act): GELU(approximate='none')
              (fc2): Linear(in_features=1536, out_features=384, bias=True)
              (drop): Dropout(p=0.0, inplace=False)
            )
            (token_mixer): Pooling(
              (pool): AvgPool2d(kernel_size=3, stride=1, padding=1)
            )
          )
        )
        (downsample): PatchMerging(
          input_resolution=(2, 2), dim=384
          (reduction): Linear(in_features=1536, out_features=768, bias=False)
          (norm): LayerNorm((1536,), eps=1e-05, elementwise_affine=True)
        )
      )
      (3): BasicLayer(
        dim=768, input_resolution=(1, 1), depth=2
        (blocks): ModuleList(
          (0): SwinTransformerBlock(
            dim=768, input_resolution=(1, 1), num_heads=24, window_size=1, shift_size=0, mlp_ratio=4.0
            (norm1): LayerNorm((768,), eps=1e-05, elementwise_affine=True)
            (drop_path): DropPath(drop_prob=0.091)
            (norm2): LayerNorm((768,), eps=1e-05, elementwise_affine=True)
            (mlp): Mlp(
              (fc1): Linear(in_features=768, out_features=3072, bias=True)
              (act): GELU(approximate='none')
              (fc2): Linear(in_features=3072, out_features=768, bias=True)
              (drop): Dropout(p=0.0, inplace=False)
            )
            (token_mixer): Pooling(
              (pool): AvgPool2d(kernel_size=3, stride=1, padding=1)
            )
          )
          (1): SwinTransformerBlock(
            dim=768, input_resolution=(1, 1), num_heads=24, window_size=1, shift_size=0, mlp_ratio=4.0
            (norm1): LayerNorm((768,), eps=1e-05, elementwise_affine=True)
            (drop_path): DropPath(drop_prob=0.100)
            (norm2): LayerNorm((768,), eps=1e-05, elementwise_affine=True)
            (mlp): Mlp(
              (fc1): Linear(in_features=768, out_features=3072, bias=True)
              (act): GELU(approximate='none')
              (fc2): Linear(in_features=3072, out_features=768, bias=True)
              (drop): Dropout(p=0.0, inplace=False)
            )
            (token_mixer): Pooling(
              (pool): AvgPool2d(kernel_size=3, stride=1, padding=1)
            )
          )
        )
      )
    )
    (norm): LayerNorm((768,), eps=1e-05, elementwise_affine=True)
    (avgpool): AdaptiveAvgPool1d(output_size=1)
    (head): Linear(in_features=768, out_features=10, bias=True)
  )
)
Student param size = 18.864298MB
args = Namespace(save_root='./results/try', img_root='./datasets', s_init='', t_model='checkpoint/swinoff-s-22pretrained-4-ckpt.t7', print_freq=50, epochs=200, batch_size=128, lr=0.1, momentum=0.9, weight_decay=0.0001, num_class=10, cuda=1, patch=4, dimhead=512, convkernel=8, size='32', seed=2, note='try', data_name='CIFAR10', t_name='swinoff-s', s_name='swinpool', kd_mode='logits', lambda_kd=1.0, T=4.0, p=2.0, w_dist=25.0, w_angle=50.0, m=2.0, gamma=0.4, P_order=2, w_irg_vert=0.1, w_irg_edge=5.0, w_irg_tran=5.0, sf=1.0, init_var=5.0, att_f=1.0)
unparsed_args = []
----------- Network Initialization --------------
Student: DataParallel(
  (module): SwinTransformer(
    (patch_embed): PatchEmbed(
      (proj): Conv2d(3, 96, kernel_size=(4, 4), stride=(4, 4))
      (norm): LayerNorm((96,), eps=1e-05, elementwise_affine=True)
    )
    (pos_drop): Dropout(p=0.0, inplace=False)
    (layers): ModuleList(
      (0): BasicLayer(
        dim=96, input_resolution=(8, 8), depth=2
        (blocks): ModuleList(
          (0): SwinTransformerBlock(
            dim=96, input_resolution=(8, 8), num_heads=3, window_size=4, shift_size=0, mlp_ratio=4.0
            (norm1): LayerNorm((96,), eps=1e-05, elementwise_affine=True)
            (drop_path): Identity()
            (norm2): LayerNorm((96,), eps=1e-05, elementwise_affine=True)
            (mlp): Mlp(
              (fc1): Linear(in_features=96, out_features=384, bias=True)
              (act): GELU(approximate='none')
              (fc2): Linear(in_features=384, out_features=96, bias=True)
              (drop): Dropout(p=0.0, inplace=False)
            )
            (token_mixer): Pooling(
              (pool): AvgPool2d(kernel_size=3, stride=1, padding=1)
            )
          )
          (1): SwinTransformerBlock(
            dim=96, input_resolution=(8, 8), num_heads=3, window_size=4, shift_size=2, mlp_ratio=4.0
            (norm1): LayerNorm((96,), eps=1e-05, elementwise_affine=True)
            (drop_path): DropPath(drop_prob=0.009)
            (norm2): LayerNorm((96,), eps=1e-05, elementwise_affine=True)
            (mlp): Mlp(
              (fc1): Linear(in_features=96, out_features=384, bias=True)
              (act): GELU(approximate='none')
              (fc2): Linear(in_features=384, out_features=96, bias=True)
              (drop): Dropout(p=0.0, inplace=False)
            )
            (token_mixer): Pooling(
              (pool): AvgPool2d(kernel_size=3, stride=1, padding=1)
            )
          )
        )
        (downsample): PatchMerging(
          input_resolution=(8, 8), dim=96
          (reduction): Linear(in_features=384, out_features=192, bias=False)
          (norm): LayerNorm((384,), eps=1e-05, elementwise_affine=True)
        )
      )
      (1): BasicLayer(
        dim=192, input_resolution=(4, 4), depth=2
        (blocks): ModuleList(
          (0): SwinTransformerBlock(
            dim=192, input_resolution=(4, 4), num_heads=6, window_size=4, shift_size=0, mlp_ratio=4.0
            (norm1): LayerNorm((192,), eps=1e-05, elementwise_affine=True)
            (drop_path): DropPath(drop_prob=0.018)
            (norm2): LayerNorm((192,), eps=1e-05, elementwise_affine=True)
            (mlp): Mlp(
              (fc1): Linear(in_features=192, out_features=768, bias=True)
              (act): GELU(approximate='none')
              (fc2): Linear(in_features=768, out_features=192, bias=True)
              (drop): Dropout(p=0.0, inplace=False)
            )
            (token_mixer): Pooling(
              (pool): AvgPool2d(kernel_size=3, stride=1, padding=1)
            )
          )
          (1): SwinTransformerBlock(
            dim=192, input_resolution=(4, 4), num_heads=6, window_size=4, shift_size=0, mlp_ratio=4.0
            (norm1): LayerNorm((192,), eps=1e-05, elementwise_affine=True)
            (drop_path): DropPath(drop_prob=0.027)
            (norm2): LayerNorm((192,), eps=1e-05, elementwise_affine=True)
            (mlp): Mlp(
              (fc1): Linear(in_features=192, out_features=768, bias=True)
              (act): GELU(approximate='none')
              (fc2): Linear(in_features=768, out_features=192, bias=True)
              (drop): Dropout(p=0.0, inplace=False)
            )
            (token_mixer): Pooling(
              (pool): AvgPool2d(kernel_size=3, stride=1, padding=1)
            )
          )
        )
        (downsample): PatchMerging(
          input_resolution=(4, 4), dim=192
          (reduction): Linear(in_features=768, out_features=384, bias=False)
          (norm): LayerNorm((768,), eps=1e-05, elementwise_affine=True)
        )
      )
      (2): BasicLayer(
        dim=384, input_resolution=(2, 2), depth=6
        (blocks): ModuleList(
          (0): SwinTransformerBlock(
            dim=384, input_resolution=(2, 2), num_heads=12, window_size=2, shift_size=0, mlp_ratio=4.0
            (norm1): LayerNorm((384,), eps=1e-05, elementwise_affine=True)
            (drop_path): DropPath(drop_prob=0.036)
            (norm2): LayerNorm((384,), eps=1e-05, elementwise_affine=True)
            (mlp): Mlp(
              (fc1): Linear(in_features=384, out_features=1536, bias=True)
              (act): GELU(approximate='none')
              (fc2): Linear(in_features=1536, out_features=384, bias=True)
              (drop): Dropout(p=0.0, inplace=False)
            )
            (token_mixer): Pooling(
              (pool): AvgPool2d(kernel_size=3, stride=1, padding=1)
            )
          )
          (1): SwinTransformerBlock(
            dim=384, input_resolution=(2, 2), num_heads=12, window_size=2, shift_size=0, mlp_ratio=4.0
            (norm1): LayerNorm((384,), eps=1e-05, elementwise_affine=True)
            (drop_path): DropPath(drop_prob=0.045)
            (norm2): LayerNorm((384,), eps=1e-05, elementwise_affine=True)
            (mlp): Mlp(
              (fc1): Linear(in_features=384, out_features=1536, bias=True)
              (act): GELU(approximate='none')
              (fc2): Linear(in_features=1536, out_features=384, bias=True)
              (drop): Dropout(p=0.0, inplace=False)
            )
            (token_mixer): Pooling(
              (pool): AvgPool2d(kernel_size=3, stride=1, padding=1)
            )
          )
          (2): SwinTransformerBlock(
            dim=384, input_resolution=(2, 2), num_heads=12, window_size=2, shift_size=0, mlp_ratio=4.0
            (norm1): LayerNorm((384,), eps=1e-05, elementwise_affine=True)
            (drop_path): DropPath(drop_prob=0.055)
            (norm2): LayerNorm((384,), eps=1e-05, elementwise_affine=True)
            (mlp): Mlp(
              (fc1): Linear(in_features=384, out_features=1536, bias=True)
              (act): GELU(approximate='none')
              (fc2): Linear(in_features=1536, out_features=384, bias=True)
              (drop): Dropout(p=0.0, inplace=False)
            )
            (token_mixer): Pooling(
              (pool): AvgPool2d(kernel_size=3, stride=1, padding=1)
            )
          )
          (3): SwinTransformerBlock(
            dim=384, input_resolution=(2, 2), num_heads=12, window_size=2, shift_size=0, mlp_ratio=4.0
            (norm1): LayerNorm((384,), eps=1e-05, elementwise_affine=True)
            (drop_path): DropPath(drop_prob=0.064)
            (norm2): LayerNorm((384,), eps=1e-05, elementwise_affine=True)
            (mlp): Mlp(
              (fc1): Linear(in_features=384, out_features=1536, bias=True)
              (act): GELU(approximate='none')
              (fc2): Linear(in_features=1536, out_features=384, bias=True)
              (drop): Dropout(p=0.0, inplace=False)
            )
            (token_mixer): Pooling(
              (pool): AvgPool2d(kernel_size=3, stride=1, padding=1)
            )
          )
          (4): SwinTransformerBlock(
            dim=384, input_resolution=(2, 2), num_heads=12, window_size=2, shift_size=0, mlp_ratio=4.0
            (norm1): LayerNorm((384,), eps=1e-05, elementwise_affine=True)
            (drop_path): DropPath(drop_prob=0.073)
            (norm2): LayerNorm((384,), eps=1e-05, elementwise_affine=True)
            (mlp): Mlp(
              (fc1): Linear(in_features=384, out_features=1536, bias=True)
              (act): GELU(approximate='none')
              (fc2): Linear(in_features=1536, out_features=384, bias=True)
              (drop): Dropout(p=0.0, inplace=False)
            )
            (token_mixer): Pooling(
              (pool): AvgPool2d(kernel_size=3, stride=1, padding=1)
            )
          )
          (5): SwinTransformerBlock(
            dim=384, input_resolution=(2, 2), num_heads=12, window_size=2, shift_size=0, mlp_ratio=4.0
            (norm1): LayerNorm((384,), eps=1e-05, elementwise_affine=True)
            (drop_path): DropPath(drop_prob=0.082)
            (norm2): LayerNorm((384,), eps=1e-05, elementwise_affine=True)
            (mlp): Mlp(
              (fc1): Linear(in_features=384, out_features=1536, bias=True)
              (act): GELU(approximate='none')
              (fc2): Linear(in_features=1536, out_features=384, bias=True)
              (drop): Dropout(p=0.0, inplace=False)
            )
            (token_mixer): Pooling(
              (pool): AvgPool2d(kernel_size=3, stride=1, padding=1)
            )
          )
        )
        (downsample): PatchMerging(
          input_resolution=(2, 2), dim=384
          (reduction): Linear(in_features=1536, out_features=768, bias=False)
          (norm): LayerNorm((1536,), eps=1e-05, elementwise_affine=True)
        )
      )
      (3): BasicLayer(
        dim=768, input_resolution=(1, 1), depth=2
        (blocks): ModuleList(
          (0): SwinTransformerBlock(
            dim=768, input_resolution=(1, 1), num_heads=24, window_size=1, shift_size=0, mlp_ratio=4.0
            (norm1): LayerNorm((768,), eps=1e-05, elementwise_affine=True)
            (drop_path): DropPath(drop_prob=0.091)
            (norm2): LayerNorm((768,), eps=1e-05, elementwise_affine=True)
            (mlp): Mlp(
              (fc1): Linear(in_features=768, out_features=3072, bias=True)
              (act): GELU(approximate='none')
              (fc2): Linear(in_features=3072, out_features=768, bias=True)
              (drop): Dropout(p=0.0, inplace=False)
            )
            (token_mixer): Pooling(
              (pool): AvgPool2d(kernel_size=3, stride=1, padding=1)
            )
          )
          (1): SwinTransformerBlock(
            dim=768, input_resolution=(1, 1), num_heads=24, window_size=1, shift_size=0, mlp_ratio=4.0
            (norm1): LayerNorm((768,), eps=1e-05, elementwise_affine=True)
            (drop_path): DropPath(drop_prob=0.100)
            (norm2): LayerNorm((768,), eps=1e-05, elementwise_affine=True)
            (mlp): Mlp(
              (fc1): Linear(in_features=768, out_features=3072, bias=True)
              (act): GELU(approximate='none')
              (fc2): Linear(in_features=3072, out_features=768, bias=True)
              (drop): Dropout(p=0.0, inplace=False)
            )
            (token_mixer): Pooling(
              (pool): AvgPool2d(kernel_size=3, stride=1, padding=1)
            )
          )
        )
      )
    )
    (norm): LayerNorm((768,), eps=1e-05, elementwise_affine=True)
    (avgpool): AdaptiveAvgPool1d(output_size=1)
    (head): Linear(in_features=768, out_features=10, bias=True)
  )
)
Student param size = 18.864298MB
args = Namespace(save_root='./results/try', img_root='./datasets', s_init='', t_model='checkpoint/swinoff-s-22pretrained-4-ckpt.t7', print_freq=50, epochs=200, batch_size=128, lr=0.1, momentum=0.9, weight_decay=0.0001, num_class=10, cuda=1, patch=4, dimhead=512, convkernel=8, size='32', seed=2, note='try', data_name='CIFAR10', t_name='swinoff-s', s_name='swinpool', kd_mode='logits', lambda_kd=1.0, T=4.0, p=2.0, w_dist=25.0, w_angle=50.0, m=2.0, gamma=0.4, P_order=2, w_irg_vert=0.1, w_irg_edge=5.0, w_irg_tran=5.0, sf=1.0, init_var=5.0, att_f=1.0)
unparsed_args = []
----------- Network Initialization --------------
Student: DataParallel(
  (module): SwinTransformer(
    (patch_embed): PatchEmbed(
      (proj): Conv2d(3, 96, kernel_size=(4, 4), stride=(4, 4))
      (norm): LayerNorm((96,), eps=1e-05, elementwise_affine=True)
    )
    (pos_drop): Dropout(p=0.0, inplace=False)
    (layers): ModuleList(
      (0): BasicLayer(
        dim=96, input_resolution=(8, 8), depth=2
        (blocks): ModuleList(
          (0): SwinTransformerBlock(
            dim=96, input_resolution=(8, 8), num_heads=3, window_size=4, shift_size=0, mlp_ratio=4.0
            (norm1): LayerNorm((96,), eps=1e-05, elementwise_affine=True)
            (drop_path): Identity()
            (norm2): LayerNorm((96,), eps=1e-05, elementwise_affine=True)
            (mlp): Mlp(
              (fc1): Linear(in_features=96, out_features=384, bias=True)
              (act): GELU(approximate='none')
              (fc2): Linear(in_features=384, out_features=96, bias=True)
              (drop): Dropout(p=0.0, inplace=False)
            )
            (token_mixer): Pooling(
              (pool): AvgPool2d(kernel_size=3, stride=1, padding=1)
            )
          )
          (1): SwinTransformerBlock(
            dim=96, input_resolution=(8, 8), num_heads=3, window_size=4, shift_size=2, mlp_ratio=4.0
            (norm1): LayerNorm((96,), eps=1e-05, elementwise_affine=True)
            (drop_path): DropPath(drop_prob=0.009)
            (norm2): LayerNorm((96,), eps=1e-05, elementwise_affine=True)
            (mlp): Mlp(
              (fc1): Linear(in_features=96, out_features=384, bias=True)
              (act): GELU(approximate='none')
              (fc2): Linear(in_features=384, out_features=96, bias=True)
              (drop): Dropout(p=0.0, inplace=False)
            )
            (token_mixer): Pooling(
              (pool): AvgPool2d(kernel_size=3, stride=1, padding=1)
            )
          )
        )
        (downsample): PatchMerging(
          input_resolution=(8, 8), dim=96
          (reduction): Linear(in_features=384, out_features=192, bias=False)
          (norm): LayerNorm((384,), eps=1e-05, elementwise_affine=True)
        )
      )
      (1): BasicLayer(
        dim=192, input_resolution=(4, 4), depth=2
        (blocks): ModuleList(
          (0): SwinTransformerBlock(
            dim=192, input_resolution=(4, 4), num_heads=6, window_size=4, shift_size=0, mlp_ratio=4.0
            (norm1): LayerNorm((192,), eps=1e-05, elementwise_affine=True)
            (drop_path): DropPath(drop_prob=0.018)
            (norm2): LayerNorm((192,), eps=1e-05, elementwise_affine=True)
            (mlp): Mlp(
              (fc1): Linear(in_features=192, out_features=768, bias=True)
              (act): GELU(approximate='none')
              (fc2): Linear(in_features=768, out_features=192, bias=True)
              (drop): Dropout(p=0.0, inplace=False)
            )
            (token_mixer): Pooling(
              (pool): AvgPool2d(kernel_size=3, stride=1, padding=1)
            )
          )
          (1): SwinTransformerBlock(
            dim=192, input_resolution=(4, 4), num_heads=6, window_size=4, shift_size=0, mlp_ratio=4.0
            (norm1): LayerNorm((192,), eps=1e-05, elementwise_affine=True)
            (drop_path): DropPath(drop_prob=0.027)
            (norm2): LayerNorm((192,), eps=1e-05, elementwise_affine=True)
            (mlp): Mlp(
              (fc1): Linear(in_features=192, out_features=768, bias=True)
              (act): GELU(approximate='none')
              (fc2): Linear(in_features=768, out_features=192, bias=True)
              (drop): Dropout(p=0.0, inplace=False)
            )
            (token_mixer): Pooling(
              (pool): AvgPool2d(kernel_size=3, stride=1, padding=1)
            )
          )
        )
        (downsample): PatchMerging(
          input_resolution=(4, 4), dim=192
          (reduction): Linear(in_features=768, out_features=384, bias=False)
          (norm): LayerNorm((768,), eps=1e-05, elementwise_affine=True)
        )
      )
      (2): BasicLayer(
        dim=384, input_resolution=(2, 2), depth=6
        (blocks): ModuleList(
          (0): SwinTransformerBlock(
            dim=384, input_resolution=(2, 2), num_heads=12, window_size=2, shift_size=0, mlp_ratio=4.0
            (norm1): LayerNorm((384,), eps=1e-05, elementwise_affine=True)
            (drop_path): DropPath(drop_prob=0.036)
            (norm2): LayerNorm((384,), eps=1e-05, elementwise_affine=True)
            (mlp): Mlp(
              (fc1): Linear(in_features=384, out_features=1536, bias=True)
              (act): GELU(approximate='none')
              (fc2): Linear(in_features=1536, out_features=384, bias=True)
              (drop): Dropout(p=0.0, inplace=False)
            )
            (token_mixer): Pooling(
              (pool): AvgPool2d(kernel_size=3, stride=1, padding=1)
            )
          )
          (1): SwinTransformerBlock(
            dim=384, input_resolution=(2, 2), num_heads=12, window_size=2, shift_size=0, mlp_ratio=4.0
            (norm1): LayerNorm((384,), eps=1e-05, elementwise_affine=True)
            (drop_path): DropPath(drop_prob=0.045)
            (norm2): LayerNorm((384,), eps=1e-05, elementwise_affine=True)
            (mlp): Mlp(
              (fc1): Linear(in_features=384, out_features=1536, bias=True)
              (act): GELU(approximate='none')
              (fc2): Linear(in_features=1536, out_features=384, bias=True)
              (drop): Dropout(p=0.0, inplace=False)
            )
            (token_mixer): Pooling(
              (pool): AvgPool2d(kernel_size=3, stride=1, padding=1)
            )
          )
          (2): SwinTransformerBlock(
            dim=384, input_resolution=(2, 2), num_heads=12, window_size=2, shift_size=0, mlp_ratio=4.0
            (norm1): LayerNorm((384,), eps=1e-05, elementwise_affine=True)
            (drop_path): DropPath(drop_prob=0.055)
            (norm2): LayerNorm((384,), eps=1e-05, elementwise_affine=True)
            (mlp): Mlp(
              (fc1): Linear(in_features=384, out_features=1536, bias=True)
              (act): GELU(approximate='none')
              (fc2): Linear(in_features=1536, out_features=384, bias=True)
              (drop): Dropout(p=0.0, inplace=False)
            )
            (token_mixer): Pooling(
              (pool): AvgPool2d(kernel_size=3, stride=1, padding=1)
            )
          )
          (3): SwinTransformerBlock(
            dim=384, input_resolution=(2, 2), num_heads=12, window_size=2, shift_size=0, mlp_ratio=4.0
            (norm1): LayerNorm((384,), eps=1e-05, elementwise_affine=True)
            (drop_path): DropPath(drop_prob=0.064)
            (norm2): LayerNorm((384,), eps=1e-05, elementwise_affine=True)
            (mlp): Mlp(
              (fc1): Linear(in_features=384, out_features=1536, bias=True)
              (act): GELU(approximate='none')
              (fc2): Linear(in_features=1536, out_features=384, bias=True)
              (drop): Dropout(p=0.0, inplace=False)
            )
            (token_mixer): Pooling(
              (pool): AvgPool2d(kernel_size=3, stride=1, padding=1)
            )
          )
          (4): SwinTransformerBlock(
            dim=384, input_resolution=(2, 2), num_heads=12, window_size=2, shift_size=0, mlp_ratio=4.0
            (norm1): LayerNorm((384,), eps=1e-05, elementwise_affine=True)
            (drop_path): DropPath(drop_prob=0.073)
            (norm2): LayerNorm((384,), eps=1e-05, elementwise_affine=True)
            (mlp): Mlp(
              (fc1): Linear(in_features=384, out_features=1536, bias=True)
              (act): GELU(approximate='none')
              (fc2): Linear(in_features=1536, out_features=384, bias=True)
              (drop): Dropout(p=0.0, inplace=False)
            )
            (token_mixer): Pooling(
              (pool): AvgPool2d(kernel_size=3, stride=1, padding=1)
            )
          )
          (5): SwinTransformerBlock(
            dim=384, input_resolution=(2, 2), num_heads=12, window_size=2, shift_size=0, mlp_ratio=4.0
            (norm1): LayerNorm((384,), eps=1e-05, elementwise_affine=True)
            (drop_path): DropPath(drop_prob=0.082)
            (norm2): LayerNorm((384,), eps=1e-05, elementwise_affine=True)
            (mlp): Mlp(
              (fc1): Linear(in_features=384, out_features=1536, bias=True)
              (act): GELU(approximate='none')
              (fc2): Linear(in_features=1536, out_features=384, bias=True)
              (drop): Dropout(p=0.0, inplace=False)
            )
            (token_mixer): Pooling(
              (pool): AvgPool2d(kernel_size=3, stride=1, padding=1)
            )
          )
        )
        (downsample): PatchMerging(
          input_resolution=(2, 2), dim=384
          (reduction): Linear(in_features=1536, out_features=768, bias=False)
          (norm): LayerNorm((1536,), eps=1e-05, elementwise_affine=True)
        )
      )
      (3): BasicLayer(
        dim=768, input_resolution=(1, 1), depth=2
        (blocks): ModuleList(
          (0): SwinTransformerBlock(
            dim=768, input_resolution=(1, 1), num_heads=24, window_size=1, shift_size=0, mlp_ratio=4.0
            (norm1): LayerNorm((768,), eps=1e-05, elementwise_affine=True)
            (drop_path): DropPath(drop_prob=0.091)
            (norm2): LayerNorm((768,), eps=1e-05, elementwise_affine=True)
            (mlp): Mlp(
              (fc1): Linear(in_features=768, out_features=3072, bias=True)
              (act): GELU(approximate='none')
              (fc2): Linear(in_features=3072, out_features=768, bias=True)
              (drop): Dropout(p=0.0, inplace=False)
            )
            (token_mixer): Pooling(
              (pool): AvgPool2d(kernel_size=3, stride=1, padding=1)
            )
          )
          (1): SwinTransformerBlock(
            dim=768, input_resolution=(1, 1), num_heads=24, window_size=1, shift_size=0, mlp_ratio=4.0
            (norm1): LayerNorm((768,), eps=1e-05, elementwise_affine=True)
            (drop_path): DropPath(drop_prob=0.100)
            (norm2): LayerNorm((768,), eps=1e-05, elementwise_affine=True)
            (mlp): Mlp(
              (fc1): Linear(in_features=768, out_features=3072, bias=True)
              (act): GELU(approximate='none')
              (fc2): Linear(in_features=3072, out_features=768, bias=True)
              (drop): Dropout(p=0.0, inplace=False)
            )
            (token_mixer): Pooling(
              (pool): AvgPool2d(kernel_size=3, stride=1, padding=1)
            )
          )
        )
      )
    )
    (norm): LayerNorm((768,), eps=1e-05, elementwise_affine=True)
    (avgpool): AdaptiveAvgPool1d(output_size=1)
    (head): Linear(in_features=768, out_features=10, bias=True)
  )
)
Student param size = 18.864298MB
args = Namespace(save_root='./results/try', img_root='./datasets', s_init='', t_model='checkpoint/swinoff-s-22pretrained-4-ckpt.t7', print_freq=50, epochs=200, batch_size=128, lr=0.1, momentum=0.9, weight_decay=0.0001, num_class=10, cuda=1, patch=4, dimhead=512, convkernel=8, size='32', seed=2, note='try', data_name='CIFAR10', t_name='swinoff-s', s_name='swinpool', kd_mode='logits', lambda_kd=1.0, T=4.0, p=2.0, w_dist=25.0, w_angle=50.0, m=2.0, gamma=0.4, P_order=2, w_irg_vert=0.1, w_irg_edge=5.0, w_irg_tran=5.0, sf=1.0, init_var=5.0, att_f=1.0)
unparsed_args = []
----------- Network Initialization --------------
Student: DataParallel(
  (module): SwinTransformer(
    (patch_embed): PatchEmbed(
      (proj): Conv2d(3, 96, kernel_size=(4, 4), stride=(4, 4))
      (norm): LayerNorm((96,), eps=1e-05, elementwise_affine=True)
    )
    (pos_drop): Dropout(p=0.0, inplace=False)
    (layers): ModuleList(
      (0): BasicLayer(
        dim=96, input_resolution=(8, 8), depth=2
        (blocks): ModuleList(
          (0): SwinTransformerBlock(
            dim=96, input_resolution=(8, 8), num_heads=3, window_size=4, shift_size=0, mlp_ratio=4.0
            (norm1): LayerNorm((96,), eps=1e-05, elementwise_affine=True)
            (drop_path): Identity()
            (norm2): LayerNorm((96,), eps=1e-05, elementwise_affine=True)
            (mlp): Mlp(
              (fc1): Linear(in_features=96, out_features=384, bias=True)
              (act): GELU(approximate='none')
              (fc2): Linear(in_features=384, out_features=96, bias=True)
              (drop): Dropout(p=0.0, inplace=False)
            )
            (token_mixer): Pooling(
              (pool): AvgPool2d(kernel_size=3, stride=1, padding=1)
            )
          )
          (1): SwinTransformerBlock(
            dim=96, input_resolution=(8, 8), num_heads=3, window_size=4, shift_size=2, mlp_ratio=4.0
            (norm1): LayerNorm((96,), eps=1e-05, elementwise_affine=True)
            (drop_path): DropPath(drop_prob=0.009)
            (norm2): LayerNorm((96,), eps=1e-05, elementwise_affine=True)
            (mlp): Mlp(
              (fc1): Linear(in_features=96, out_features=384, bias=True)
              (act): GELU(approximate='none')
              (fc2): Linear(in_features=384, out_features=96, bias=True)
              (drop): Dropout(p=0.0, inplace=False)
            )
            (token_mixer): Pooling(
              (pool): AvgPool2d(kernel_size=3, stride=1, padding=1)
            )
          )
        )
        (downsample): PatchMerging(
          input_resolution=(8, 8), dim=96
          (reduction): Linear(in_features=384, out_features=192, bias=False)
          (norm): LayerNorm((384,), eps=1e-05, elementwise_affine=True)
        )
      )
      (1): BasicLayer(
        dim=192, input_resolution=(4, 4), depth=2
        (blocks): ModuleList(
          (0): SwinTransformerBlock(
            dim=192, input_resolution=(4, 4), num_heads=6, window_size=4, shift_size=0, mlp_ratio=4.0
            (norm1): LayerNorm((192,), eps=1e-05, elementwise_affine=True)
            (drop_path): DropPath(drop_prob=0.018)
            (norm2): LayerNorm((192,), eps=1e-05, elementwise_affine=True)
            (mlp): Mlp(
              (fc1): Linear(in_features=192, out_features=768, bias=True)
              (act): GELU(approximate='none')
              (fc2): Linear(in_features=768, out_features=192, bias=True)
              (drop): Dropout(p=0.0, inplace=False)
            )
            (token_mixer): Pooling(
              (pool): AvgPool2d(kernel_size=3, stride=1, padding=1)
            )
          )
          (1): SwinTransformerBlock(
            dim=192, input_resolution=(4, 4), num_heads=6, window_size=4, shift_size=0, mlp_ratio=4.0
            (norm1): LayerNorm((192,), eps=1e-05, elementwise_affine=True)
            (drop_path): DropPath(drop_prob=0.027)
            (norm2): LayerNorm((192,), eps=1e-05, elementwise_affine=True)
            (mlp): Mlp(
              (fc1): Linear(in_features=192, out_features=768, bias=True)
              (act): GELU(approximate='none')
              (fc2): Linear(in_features=768, out_features=192, bias=True)
              (drop): Dropout(p=0.0, inplace=False)
            )
            (token_mixer): Pooling(
              (pool): AvgPool2d(kernel_size=3, stride=1, padding=1)
            )
          )
        )
        (downsample): PatchMerging(
          input_resolution=(4, 4), dim=192
          (reduction): Linear(in_features=768, out_features=384, bias=False)
          (norm): LayerNorm((768,), eps=1e-05, elementwise_affine=True)
        )
      )
      (2): BasicLayer(
        dim=384, input_resolution=(2, 2), depth=6
        (blocks): ModuleList(
          (0): SwinTransformerBlock(
            dim=384, input_resolution=(2, 2), num_heads=12, window_size=2, shift_size=0, mlp_ratio=4.0
            (norm1): LayerNorm((384,), eps=1e-05, elementwise_affine=True)
            (drop_path): DropPath(drop_prob=0.036)
            (norm2): LayerNorm((384,), eps=1e-05, elementwise_affine=True)
            (mlp): Mlp(
              (fc1): Linear(in_features=384, out_features=1536, bias=True)
              (act): GELU(approximate='none')
              (fc2): Linear(in_features=1536, out_features=384, bias=True)
              (drop): Dropout(p=0.0, inplace=False)
            )
            (token_mixer): Pooling(
              (pool): AvgPool2d(kernel_size=3, stride=1, padding=1)
            )
          )
          (1): SwinTransformerBlock(
            dim=384, input_resolution=(2, 2), num_heads=12, window_size=2, shift_size=0, mlp_ratio=4.0
            (norm1): LayerNorm((384,), eps=1e-05, elementwise_affine=True)
            (drop_path): DropPath(drop_prob=0.045)
            (norm2): LayerNorm((384,), eps=1e-05, elementwise_affine=True)
            (mlp): Mlp(
              (fc1): Linear(in_features=384, out_features=1536, bias=True)
              (act): GELU(approximate='none')
              (fc2): Linear(in_features=1536, out_features=384, bias=True)
              (drop): Dropout(p=0.0, inplace=False)
            )
            (token_mixer): Pooling(
              (pool): AvgPool2d(kernel_size=3, stride=1, padding=1)
            )
          )
          (2): SwinTransformerBlock(
            dim=384, input_resolution=(2, 2), num_heads=12, window_size=2, shift_size=0, mlp_ratio=4.0
            (norm1): LayerNorm((384,), eps=1e-05, elementwise_affine=True)
            (drop_path): DropPath(drop_prob=0.055)
            (norm2): LayerNorm((384,), eps=1e-05, elementwise_affine=True)
            (mlp): Mlp(
              (fc1): Linear(in_features=384, out_features=1536, bias=True)
              (act): GELU(approximate='none')
              (fc2): Linear(in_features=1536, out_features=384, bias=True)
              (drop): Dropout(p=0.0, inplace=False)
            )
            (token_mixer): Pooling(
              (pool): AvgPool2d(kernel_size=3, stride=1, padding=1)
            )
          )
          (3): SwinTransformerBlock(
            dim=384, input_resolution=(2, 2), num_heads=12, window_size=2, shift_size=0, mlp_ratio=4.0
            (norm1): LayerNorm((384,), eps=1e-05, elementwise_affine=True)
            (drop_path): DropPath(drop_prob=0.064)
            (norm2): LayerNorm((384,), eps=1e-05, elementwise_affine=True)
            (mlp): Mlp(
              (fc1): Linear(in_features=384, out_features=1536, bias=True)
              (act): GELU(approximate='none')
              (fc2): Linear(in_features=1536, out_features=384, bias=True)
              (drop): Dropout(p=0.0, inplace=False)
            )
            (token_mixer): Pooling(
              (pool): AvgPool2d(kernel_size=3, stride=1, padding=1)
            )
          )
          (4): SwinTransformerBlock(
            dim=384, input_resolution=(2, 2), num_heads=12, window_size=2, shift_size=0, mlp_ratio=4.0
            (norm1): LayerNorm((384,), eps=1e-05, elementwise_affine=True)
            (drop_path): DropPath(drop_prob=0.073)
            (norm2): LayerNorm((384,), eps=1e-05, elementwise_affine=True)
            (mlp): Mlp(
              (fc1): Linear(in_features=384, out_features=1536, bias=True)
              (act): GELU(approximate='none')
              (fc2): Linear(in_features=1536, out_features=384, bias=True)
              (drop): Dropout(p=0.0, inplace=False)
            )
            (token_mixer): Pooling(
              (pool): AvgPool2d(kernel_size=3, stride=1, padding=1)
            )
          )
          (5): SwinTransformerBlock(
            dim=384, input_resolution=(2, 2), num_heads=12, window_size=2, shift_size=0, mlp_ratio=4.0
            (norm1): LayerNorm((384,), eps=1e-05, elementwise_affine=True)
            (drop_path): DropPath(drop_prob=0.082)
            (norm2): LayerNorm((384,), eps=1e-05, elementwise_affine=True)
            (mlp): Mlp(
              (fc1): Linear(in_features=384, out_features=1536, bias=True)
              (act): GELU(approximate='none')
              (fc2): Linear(in_features=1536, out_features=384, bias=True)
              (drop): Dropout(p=0.0, inplace=False)
            )
            (token_mixer): Pooling(
              (pool): AvgPool2d(kernel_size=3, stride=1, padding=1)
            )
          )
        )
        (downsample): PatchMerging(
          input_resolution=(2, 2), dim=384
          (reduction): Linear(in_features=1536, out_features=768, bias=False)
          (norm): LayerNorm((1536,), eps=1e-05, elementwise_affine=True)
        )
      )
      (3): BasicLayer(
        dim=768, input_resolution=(1, 1), depth=2
        (blocks): ModuleList(
          (0): SwinTransformerBlock(
            dim=768, input_resolution=(1, 1), num_heads=24, window_size=1, shift_size=0, mlp_ratio=4.0
            (norm1): LayerNorm((768,), eps=1e-05, elementwise_affine=True)
            (drop_path): DropPath(drop_prob=0.091)
            (norm2): LayerNorm((768,), eps=1e-05, elementwise_affine=True)
            (mlp): Mlp(
              (fc1): Linear(in_features=768, out_features=3072, bias=True)
              (act): GELU(approximate='none')
              (fc2): Linear(in_features=3072, out_features=768, bias=True)
              (drop): Dropout(p=0.0, inplace=False)
            )
            (token_mixer): Pooling(
              (pool): AvgPool2d(kernel_size=3, stride=1, padding=1)
            )
          )
          (1): SwinTransformerBlock(
            dim=768, input_resolution=(1, 1), num_heads=24, window_size=1, shift_size=0, mlp_ratio=4.0
            (norm1): LayerNorm((768,), eps=1e-05, elementwise_affine=True)
            (drop_path): DropPath(drop_prob=0.100)
            (norm2): LayerNorm((768,), eps=1e-05, elementwise_affine=True)
            (mlp): Mlp(
              (fc1): Linear(in_features=768, out_features=3072, bias=True)
              (act): GELU(approximate='none')
              (fc2): Linear(in_features=3072, out_features=768, bias=True)
              (drop): Dropout(p=0.0, inplace=False)
            )
            (token_mixer): Pooling(
              (pool): AvgPool2d(kernel_size=3, stride=1, padding=1)
            )
          )
        )
      )
    )
    (norm): LayerNorm((768,), eps=1e-05, elementwise_affine=True)
    (avgpool): AdaptiveAvgPool1d(output_size=1)
    (head): Linear(in_features=768, out_features=10, bias=True)
  )
)
Student param size = 18.864298MB
args = Namespace(save_root='./results/try', img_root='./datasets', s_init='', t_model='checkpoint/swinoff-s-22pretrained-4-ckpt.t7', print_freq=50, epochs=200, batch_size=128, lr=0.1, momentum=0.9, weight_decay=0.0001, num_class=10, cuda=1, patch=4, dimhead=512, convkernel=8, size='32', seed=2, note='try', data_name='CIFAR10', t_name='swinoff-s', s_name='swinpool', kd_mode='logits', lambda_kd=1.0, T=4.0, p=2.0, w_dist=25.0, w_angle=50.0, m=2.0, gamma=0.4, P_order=2, w_irg_vert=0.1, w_irg_edge=5.0, w_irg_tran=5.0, sf=1.0, init_var=5.0, att_f=1.0)
unparsed_args = []
----------- Network Initialization --------------
Student: DataParallel(
  (module): SwinTransformer(
    (patch_embed): PatchEmbed(
      (proj): Conv2d(3, 96, kernel_size=(4, 4), stride=(4, 4))
      (norm): LayerNorm((96,), eps=1e-05, elementwise_affine=True)
    )
    (pos_drop): Dropout(p=0.0, inplace=False)
    (layers): ModuleList(
      (0): BasicLayer(
        dim=96, input_resolution=(8, 8), depth=2
        (blocks): ModuleList(
          (0): SwinTransformerBlock(
            dim=96, input_resolution=(8, 8), num_heads=3, window_size=4, shift_size=0, mlp_ratio=4.0
            (norm1): LayerNorm((96,), eps=1e-05, elementwise_affine=True)
            (drop_path): Identity()
            (norm2): LayerNorm((96,), eps=1e-05, elementwise_affine=True)
            (mlp): Mlp(
              (fc1): Linear(in_features=96, out_features=384, bias=True)
              (act): GELU(approximate='none')
              (fc2): Linear(in_features=384, out_features=96, bias=True)
              (drop): Dropout(p=0.0, inplace=False)
            )
            (token_mixer): Pooling(
              (pool): AvgPool2d(kernel_size=3, stride=1, padding=1)
            )
          )
          (1): SwinTransformerBlock(
            dim=96, input_resolution=(8, 8), num_heads=3, window_size=4, shift_size=2, mlp_ratio=4.0
            (norm1): LayerNorm((96,), eps=1e-05, elementwise_affine=True)
            (drop_path): DropPath(drop_prob=0.009)
            (norm2): LayerNorm((96,), eps=1e-05, elementwise_affine=True)
            (mlp): Mlp(
              (fc1): Linear(in_features=96, out_features=384, bias=True)
              (act): GELU(approximate='none')
              (fc2): Linear(in_features=384, out_features=96, bias=True)
              (drop): Dropout(p=0.0, inplace=False)
            )
            (token_mixer): Pooling(
              (pool): AvgPool2d(kernel_size=3, stride=1, padding=1)
            )
          )
        )
        (downsample): PatchMerging(
          input_resolution=(8, 8), dim=96
          (reduction): Linear(in_features=384, out_features=192, bias=False)
          (norm): LayerNorm((384,), eps=1e-05, elementwise_affine=True)
        )
      )
      (1): BasicLayer(
        dim=192, input_resolution=(4, 4), depth=2
        (blocks): ModuleList(
          (0): SwinTransformerBlock(
            dim=192, input_resolution=(4, 4), num_heads=6, window_size=4, shift_size=0, mlp_ratio=4.0
            (norm1): LayerNorm((192,), eps=1e-05, elementwise_affine=True)
            (drop_path): DropPath(drop_prob=0.018)
            (norm2): LayerNorm((192,), eps=1e-05, elementwise_affine=True)
            (mlp): Mlp(
              (fc1): Linear(in_features=192, out_features=768, bias=True)
              (act): GELU(approximate='none')
              (fc2): Linear(in_features=768, out_features=192, bias=True)
              (drop): Dropout(p=0.0, inplace=False)
            )
            (token_mixer): Pooling(
              (pool): AvgPool2d(kernel_size=3, stride=1, padding=1)
            )
          )
          (1): SwinTransformerBlock(
            dim=192, input_resolution=(4, 4), num_heads=6, window_size=4, shift_size=0, mlp_ratio=4.0
            (norm1): LayerNorm((192,), eps=1e-05, elementwise_affine=True)
            (drop_path): DropPath(drop_prob=0.027)
            (norm2): LayerNorm((192,), eps=1e-05, elementwise_affine=True)
            (mlp): Mlp(
              (fc1): Linear(in_features=192, out_features=768, bias=True)
              (act): GELU(approximate='none')
              (fc2): Linear(in_features=768, out_features=192, bias=True)
              (drop): Dropout(p=0.0, inplace=False)
            )
            (token_mixer): Pooling(
              (pool): AvgPool2d(kernel_size=3, stride=1, padding=1)
            )
          )
        )
        (downsample): PatchMerging(
          input_resolution=(4, 4), dim=192
          (reduction): Linear(in_features=768, out_features=384, bias=False)
          (norm): LayerNorm((768,), eps=1e-05, elementwise_affine=True)
        )
      )
      (2): BasicLayer(
        dim=384, input_resolution=(2, 2), depth=6
        (blocks): ModuleList(
          (0): SwinTransformerBlock(
            dim=384, input_resolution=(2, 2), num_heads=12, window_size=2, shift_size=0, mlp_ratio=4.0
            (norm1): LayerNorm((384,), eps=1e-05, elementwise_affine=True)
            (drop_path): DropPath(drop_prob=0.036)
            (norm2): LayerNorm((384,), eps=1e-05, elementwise_affine=True)
            (mlp): Mlp(
              (fc1): Linear(in_features=384, out_features=1536, bias=True)
              (act): GELU(approximate='none')
              (fc2): Linear(in_features=1536, out_features=384, bias=True)
              (drop): Dropout(p=0.0, inplace=False)
            )
            (token_mixer): Pooling(
              (pool): AvgPool2d(kernel_size=3, stride=1, padding=1)
            )
          )
          (1): SwinTransformerBlock(
            dim=384, input_resolution=(2, 2), num_heads=12, window_size=2, shift_size=0, mlp_ratio=4.0
            (norm1): LayerNorm((384,), eps=1e-05, elementwise_affine=True)
            (drop_path): DropPath(drop_prob=0.045)
            (norm2): LayerNorm((384,), eps=1e-05, elementwise_affine=True)
            (mlp): Mlp(
              (fc1): Linear(in_features=384, out_features=1536, bias=True)
              (act): GELU(approximate='none')
              (fc2): Linear(in_features=1536, out_features=384, bias=True)
              (drop): Dropout(p=0.0, inplace=False)
            )
            (token_mixer): Pooling(
              (pool): AvgPool2d(kernel_size=3, stride=1, padding=1)
            )
          )
          (2): SwinTransformerBlock(
            dim=384, input_resolution=(2, 2), num_heads=12, window_size=2, shift_size=0, mlp_ratio=4.0
            (norm1): LayerNorm((384,), eps=1e-05, elementwise_affine=True)
            (drop_path): DropPath(drop_prob=0.055)
            (norm2): LayerNorm((384,), eps=1e-05, elementwise_affine=True)
            (mlp): Mlp(
              (fc1): Linear(in_features=384, out_features=1536, bias=True)
              (act): GELU(approximate='none')
              (fc2): Linear(in_features=1536, out_features=384, bias=True)
              (drop): Dropout(p=0.0, inplace=False)
            )
            (token_mixer): Pooling(
              (pool): AvgPool2d(kernel_size=3, stride=1, padding=1)
            )
          )
          (3): SwinTransformerBlock(
            dim=384, input_resolution=(2, 2), num_heads=12, window_size=2, shift_size=0, mlp_ratio=4.0
            (norm1): LayerNorm((384,), eps=1e-05, elementwise_affine=True)
            (drop_path): DropPath(drop_prob=0.064)
            (norm2): LayerNorm((384,), eps=1e-05, elementwise_affine=True)
            (mlp): Mlp(
              (fc1): Linear(in_features=384, out_features=1536, bias=True)
              (act): GELU(approximate='none')
              (fc2): Linear(in_features=1536, out_features=384, bias=True)
              (drop): Dropout(p=0.0, inplace=False)
            )
            (token_mixer): Pooling(
              (pool): AvgPool2d(kernel_size=3, stride=1, padding=1)
            )
          )
          (4): SwinTransformerBlock(
            dim=384, input_resolution=(2, 2), num_heads=12, window_size=2, shift_size=0, mlp_ratio=4.0
            (norm1): LayerNorm((384,), eps=1e-05, elementwise_affine=True)
            (drop_path): DropPath(drop_prob=0.073)
            (norm2): LayerNorm((384,), eps=1e-05, elementwise_affine=True)
            (mlp): Mlp(
              (fc1): Linear(in_features=384, out_features=1536, bias=True)
              (act): GELU(approximate='none')
              (fc2): Linear(in_features=1536, out_features=384, bias=True)
              (drop): Dropout(p=0.0, inplace=False)
            )
            (token_mixer): Pooling(
              (pool): AvgPool2d(kernel_size=3, stride=1, padding=1)
            )
          )
          (5): SwinTransformerBlock(
            dim=384, input_resolution=(2, 2), num_heads=12, window_size=2, shift_size=0, mlp_ratio=4.0
            (norm1): LayerNorm((384,), eps=1e-05, elementwise_affine=True)
            (drop_path): DropPath(drop_prob=0.082)
            (norm2): LayerNorm((384,), eps=1e-05, elementwise_affine=True)
            (mlp): Mlp(
              (fc1): Linear(in_features=384, out_features=1536, bias=True)
              (act): GELU(approximate='none')
              (fc2): Linear(in_features=1536, out_features=384, bias=True)
              (drop): Dropout(p=0.0, inplace=False)
            )
            (token_mixer): Pooling(
              (pool): AvgPool2d(kernel_size=3, stride=1, padding=1)
            )
          )
        )
        (downsample): PatchMerging(
          input_resolution=(2, 2), dim=384
          (reduction): Linear(in_features=1536, out_features=768, bias=False)
          (norm): LayerNorm((1536,), eps=1e-05, elementwise_affine=True)
        )
      )
      (3): BasicLayer(
        dim=768, input_resolution=(1, 1), depth=2
        (blocks): ModuleList(
          (0): SwinTransformerBlock(
            dim=768, input_resolution=(1, 1), num_heads=24, window_size=1, shift_size=0, mlp_ratio=4.0
            (norm1): LayerNorm((768,), eps=1e-05, elementwise_affine=True)
            (drop_path): DropPath(drop_prob=0.091)
            (norm2): LayerNorm((768,), eps=1e-05, elementwise_affine=True)
            (mlp): Mlp(
              (fc1): Linear(in_features=768, out_features=3072, bias=True)
              (act): GELU(approximate='none')
              (fc2): Linear(in_features=3072, out_features=768, bias=True)
              (drop): Dropout(p=0.0, inplace=False)
            )
            (token_mixer): Pooling(
              (pool): AvgPool2d(kernel_size=3, stride=1, padding=1)
            )
          )
          (1): SwinTransformerBlock(
            dim=768, input_resolution=(1, 1), num_heads=24, window_size=1, shift_size=0, mlp_ratio=4.0
            (norm1): LayerNorm((768,), eps=1e-05, elementwise_affine=True)
            (drop_path): DropPath(drop_prob=0.100)
            (norm2): LayerNorm((768,), eps=1e-05, elementwise_affine=True)
            (mlp): Mlp(
              (fc1): Linear(in_features=768, out_features=3072, bias=True)
              (act): GELU(approximate='none')
              (fc2): Linear(in_features=3072, out_features=768, bias=True)
              (drop): Dropout(p=0.0, inplace=False)
            )
            (token_mixer): Pooling(
              (pool): AvgPool2d(kernel_size=3, stride=1, padding=1)
            )
          )
        )
      )
    )
    (norm): LayerNorm((768,), eps=1e-05, elementwise_affine=True)
    (avgpool): AdaptiveAvgPool1d(output_size=1)
    (head): Linear(in_features=768, out_features=10, bias=True)
  )
)
Student param size = 18.864298MB
args = Namespace(save_root='./results/try', img_root='./datasets', s_init='', t_model='checkpoint/swinoff-s-22pretrained-4-ckpt.t7', print_freq=50, epochs=200, batch_size=128, lr=0.1, momentum=0.9, weight_decay=0.0001, num_class=10, cuda=1, patch=4, dimhead=512, convkernel=8, size='32', seed=2, note='try', data_name='CIFAR10', t_name='swinoff-s', s_name='swinpool', kd_mode='logits', lambda_kd=1.0, T=4.0, p=2.0, w_dist=25.0, w_angle=50.0, m=2.0, gamma=0.4, P_order=2, w_irg_vert=0.1, w_irg_edge=5.0, w_irg_tran=5.0, sf=1.0, init_var=5.0, att_f=1.0)
unparsed_args = []
----------- Network Initialization --------------
Student: DataParallel(
  (module): SwinTransformer(
    (patch_embed): PatchEmbed(
      (proj): Conv2d(3, 96, kernel_size=(4, 4), stride=(4, 4))
      (norm): LayerNorm((96,), eps=1e-05, elementwise_affine=True)
    )
    (pos_drop): Dropout(p=0.0, inplace=False)
    (layers): ModuleList(
      (0): BasicLayer(
        dim=96, input_resolution=(8, 8), depth=2
        (blocks): ModuleList(
          (0): SwinTransformerBlock(
            dim=96, input_resolution=(8, 8), num_heads=3, window_size=4, shift_size=0, mlp_ratio=4.0
            (norm1): LayerNorm((96,), eps=1e-05, elementwise_affine=True)
            (drop_path): Identity()
            (norm2): LayerNorm((96,), eps=1e-05, elementwise_affine=True)
            (mlp): Mlp(
              (fc1): Linear(in_features=96, out_features=384, bias=True)
              (act): GELU(approximate='none')
              (fc2): Linear(in_features=384, out_features=96, bias=True)
              (drop): Dropout(p=0.0, inplace=False)
            )
            (token_mixer): Pooling(
              (pool): AvgPool2d(kernel_size=3, stride=1, padding=1)
            )
          )
          (1): SwinTransformerBlock(
            dim=96, input_resolution=(8, 8), num_heads=3, window_size=4, shift_size=2, mlp_ratio=4.0
            (norm1): LayerNorm((96,), eps=1e-05, elementwise_affine=True)
            (drop_path): DropPath(drop_prob=0.009)
            (norm2): LayerNorm((96,), eps=1e-05, elementwise_affine=True)
            (mlp): Mlp(
              (fc1): Linear(in_features=96, out_features=384, bias=True)
              (act): GELU(approximate='none')
              (fc2): Linear(in_features=384, out_features=96, bias=True)
              (drop): Dropout(p=0.0, inplace=False)
            )
            (token_mixer): Pooling(
              (pool): AvgPool2d(kernel_size=3, stride=1, padding=1)
            )
          )
        )
        (downsample): PatchMerging(
          input_resolution=(8, 8), dim=96
          (reduction): Linear(in_features=384, out_features=192, bias=False)
          (norm): LayerNorm((384,), eps=1e-05, elementwise_affine=True)
        )
      )
      (1): BasicLayer(
        dim=192, input_resolution=(4, 4), depth=2
        (blocks): ModuleList(
          (0): SwinTransformerBlock(
            dim=192, input_resolution=(4, 4), num_heads=6, window_size=4, shift_size=0, mlp_ratio=4.0
            (norm1): LayerNorm((192,), eps=1e-05, elementwise_affine=True)
            (drop_path): DropPath(drop_prob=0.018)
            (norm2): LayerNorm((192,), eps=1e-05, elementwise_affine=True)
            (mlp): Mlp(
              (fc1): Linear(in_features=192, out_features=768, bias=True)
              (act): GELU(approximate='none')
              (fc2): Linear(in_features=768, out_features=192, bias=True)
              (drop): Dropout(p=0.0, inplace=False)
            )
            (token_mixer): Pooling(
              (pool): AvgPool2d(kernel_size=3, stride=1, padding=1)
            )
          )
          (1): SwinTransformerBlock(
            dim=192, input_resolution=(4, 4), num_heads=6, window_size=4, shift_size=0, mlp_ratio=4.0
            (norm1): LayerNorm((192,), eps=1e-05, elementwise_affine=True)
            (drop_path): DropPath(drop_prob=0.027)
            (norm2): LayerNorm((192,), eps=1e-05, elementwise_affine=True)
            (mlp): Mlp(
              (fc1): Linear(in_features=192, out_features=768, bias=True)
              (act): GELU(approximate='none')
              (fc2): Linear(in_features=768, out_features=192, bias=True)
              (drop): Dropout(p=0.0, inplace=False)
            )
            (token_mixer): Pooling(
              (pool): AvgPool2d(kernel_size=3, stride=1, padding=1)
            )
          )
        )
        (downsample): PatchMerging(
          input_resolution=(4, 4), dim=192
          (reduction): Linear(in_features=768, out_features=384, bias=False)
          (norm): LayerNorm((768,), eps=1e-05, elementwise_affine=True)
        )
      )
      (2): BasicLayer(
        dim=384, input_resolution=(2, 2), depth=6
        (blocks): ModuleList(
          (0): SwinTransformerBlock(
            dim=384, input_resolution=(2, 2), num_heads=12, window_size=2, shift_size=0, mlp_ratio=4.0
            (norm1): LayerNorm((384,), eps=1e-05, elementwise_affine=True)
            (drop_path): DropPath(drop_prob=0.036)
            (norm2): LayerNorm((384,), eps=1e-05, elementwise_affine=True)
            (mlp): Mlp(
              (fc1): Linear(in_features=384, out_features=1536, bias=True)
              (act): GELU(approximate='none')
              (fc2): Linear(in_features=1536, out_features=384, bias=True)
              (drop): Dropout(p=0.0, inplace=False)
            )
            (token_mixer): Pooling(
              (pool): AvgPool2d(kernel_size=3, stride=1, padding=1)
            )
          )
          (1): SwinTransformerBlock(
            dim=384, input_resolution=(2, 2), num_heads=12, window_size=2, shift_size=0, mlp_ratio=4.0
            (norm1): LayerNorm((384,), eps=1e-05, elementwise_affine=True)
            (drop_path): DropPath(drop_prob=0.045)
            (norm2): LayerNorm((384,), eps=1e-05, elementwise_affine=True)
            (mlp): Mlp(
              (fc1): Linear(in_features=384, out_features=1536, bias=True)
              (act): GELU(approximate='none')
              (fc2): Linear(in_features=1536, out_features=384, bias=True)
              (drop): Dropout(p=0.0, inplace=False)
            )
            (token_mixer): Pooling(
              (pool): AvgPool2d(kernel_size=3, stride=1, padding=1)
            )
          )
          (2): SwinTransformerBlock(
            dim=384, input_resolution=(2, 2), num_heads=12, window_size=2, shift_size=0, mlp_ratio=4.0
            (norm1): LayerNorm((384,), eps=1e-05, elementwise_affine=True)
            (drop_path): DropPath(drop_prob=0.055)
            (norm2): LayerNorm((384,), eps=1e-05, elementwise_affine=True)
            (mlp): Mlp(
              (fc1): Linear(in_features=384, out_features=1536, bias=True)
              (act): GELU(approximate='none')
              (fc2): Linear(in_features=1536, out_features=384, bias=True)
              (drop): Dropout(p=0.0, inplace=False)
            )
            (token_mixer): Pooling(
              (pool): AvgPool2d(kernel_size=3, stride=1, padding=1)
            )
          )
          (3): SwinTransformerBlock(
            dim=384, input_resolution=(2, 2), num_heads=12, window_size=2, shift_size=0, mlp_ratio=4.0
            (norm1): LayerNorm((384,), eps=1e-05, elementwise_affine=True)
            (drop_path): DropPath(drop_prob=0.064)
            (norm2): LayerNorm((384,), eps=1e-05, elementwise_affine=True)
            (mlp): Mlp(
              (fc1): Linear(in_features=384, out_features=1536, bias=True)
              (act): GELU(approximate='none')
              (fc2): Linear(in_features=1536, out_features=384, bias=True)
              (drop): Dropout(p=0.0, inplace=False)
            )
            (token_mixer): Pooling(
              (pool): AvgPool2d(kernel_size=3, stride=1, padding=1)
            )
          )
          (4): SwinTransformerBlock(
            dim=384, input_resolution=(2, 2), num_heads=12, window_size=2, shift_size=0, mlp_ratio=4.0
            (norm1): LayerNorm((384,), eps=1e-05, elementwise_affine=True)
            (drop_path): DropPath(drop_prob=0.073)
            (norm2): LayerNorm((384,), eps=1e-05, elementwise_affine=True)
            (mlp): Mlp(
              (fc1): Linear(in_features=384, out_features=1536, bias=True)
              (act): GELU(approximate='none')
              (fc2): Linear(in_features=1536, out_features=384, bias=True)
              (drop): Dropout(p=0.0, inplace=False)
            )
            (token_mixer): Pooling(
              (pool): AvgPool2d(kernel_size=3, stride=1, padding=1)
            )
          )
          (5): SwinTransformerBlock(
            dim=384, input_resolution=(2, 2), num_heads=12, window_size=2, shift_size=0, mlp_ratio=4.0
            (norm1): LayerNorm((384,), eps=1e-05, elementwise_affine=True)
            (drop_path): DropPath(drop_prob=0.082)
            (norm2): LayerNorm((384,), eps=1e-05, elementwise_affine=True)
            (mlp): Mlp(
              (fc1): Linear(in_features=384, out_features=1536, bias=True)
              (act): GELU(approximate='none')
              (fc2): Linear(in_features=1536, out_features=384, bias=True)
              (drop): Dropout(p=0.0, inplace=False)
            )
            (token_mixer): Pooling(
              (pool): AvgPool2d(kernel_size=3, stride=1, padding=1)
            )
          )
        )
        (downsample): PatchMerging(
          input_resolution=(2, 2), dim=384
          (reduction): Linear(in_features=1536, out_features=768, bias=False)
          (norm): LayerNorm((1536,), eps=1e-05, elementwise_affine=True)
        )
      )
      (3): BasicLayer(
        dim=768, input_resolution=(1, 1), depth=2
        (blocks): ModuleList(
          (0): SwinTransformerBlock(
            dim=768, input_resolution=(1, 1), num_heads=24, window_size=1, shift_size=0, mlp_ratio=4.0
            (norm1): LayerNorm((768,), eps=1e-05, elementwise_affine=True)
            (drop_path): DropPath(drop_prob=0.091)
            (norm2): LayerNorm((768,), eps=1e-05, elementwise_affine=True)
            (mlp): Mlp(
              (fc1): Linear(in_features=768, out_features=3072, bias=True)
              (act): GELU(approximate='none')
              (fc2): Linear(in_features=3072, out_features=768, bias=True)
              (drop): Dropout(p=0.0, inplace=False)
            )
            (token_mixer): Pooling(
              (pool): AvgPool2d(kernel_size=3, stride=1, padding=1)
            )
          )
          (1): SwinTransformerBlock(
            dim=768, input_resolution=(1, 1), num_heads=24, window_size=1, shift_size=0, mlp_ratio=4.0
            (norm1): LayerNorm((768,), eps=1e-05, elementwise_affine=True)
            (drop_path): DropPath(drop_prob=0.100)
            (norm2): LayerNorm((768,), eps=1e-05, elementwise_affine=True)
            (mlp): Mlp(
              (fc1): Linear(in_features=768, out_features=3072, bias=True)
              (act): GELU(approximate='none')
              (fc2): Linear(in_features=3072, out_features=768, bias=True)
              (drop): Dropout(p=0.0, inplace=False)
            )
            (token_mixer): Pooling(
              (pool): AvgPool2d(kernel_size=3, stride=1, padding=1)
            )
          )
        )
      )
    )
    (norm): LayerNorm((768,), eps=1e-05, elementwise_affine=True)
    (avgpool): AdaptiveAvgPool1d(output_size=1)
    (head): Linear(in_features=768, out_features=10, bias=True)
  )
)
Student param size = 18.864298MB
args = Namespace(save_root='./results/try', img_root='./datasets', s_init='', t_model='checkpoint/swinoff-s-22pretrained-4-ckpt.t7', print_freq=50, epochs=200, batch_size=128, lr=0.1, momentum=0.9, weight_decay=0.0001, num_class=10, cuda=1, patch=4, dimhead=512, convkernel=8, size='32', seed=2, note='try', data_name='CIFAR10', t_name='swinoff-s', s_name='swinpool', kd_mode='logits', lambda_kd=1.0, T=4.0, p=2.0, w_dist=25.0, w_angle=50.0, m=2.0, gamma=0.4, P_order=2, w_irg_vert=0.1, w_irg_edge=5.0, w_irg_tran=5.0, sf=1.0, init_var=5.0, att_f=1.0)
unparsed_args = []
----------- Network Initialization --------------
Student: DataParallel(
  (module): SwinTransformer(
    (patch_embed): PatchEmbed(
      (proj): Conv2d(3, 96, kernel_size=(4, 4), stride=(4, 4))
      (norm): LayerNorm((96,), eps=1e-05, elementwise_affine=True)
    )
    (pos_drop): Dropout(p=0.0, inplace=False)
    (layers): ModuleList(
      (0): BasicLayer(
        dim=96, input_resolution=(8, 8), depth=2
        (blocks): ModuleList(
          (0): SwinTransformerBlock(
            dim=96, input_resolution=(8, 8), num_heads=3, window_size=4, shift_size=0, mlp_ratio=4.0
            (norm1): LayerNorm((96,), eps=1e-05, elementwise_affine=True)
            (drop_path): Identity()
            (norm2): LayerNorm((96,), eps=1e-05, elementwise_affine=True)
            (mlp): Mlp(
              (fc1): Linear(in_features=96, out_features=384, bias=True)
              (act): GELU(approximate='none')
              (fc2): Linear(in_features=384, out_features=96, bias=True)
              (drop): Dropout(p=0.0, inplace=False)
            )
            (token_mixer): Pooling(
              (pool): AvgPool2d(kernel_size=3, stride=1, padding=1)
            )
          )
          (1): SwinTransformerBlock(
            dim=96, input_resolution=(8, 8), num_heads=3, window_size=4, shift_size=2, mlp_ratio=4.0
            (norm1): LayerNorm((96,), eps=1e-05, elementwise_affine=True)
            (drop_path): DropPath(drop_prob=0.009)
            (norm2): LayerNorm((96,), eps=1e-05, elementwise_affine=True)
            (mlp): Mlp(
              (fc1): Linear(in_features=96, out_features=384, bias=True)
              (act): GELU(approximate='none')
              (fc2): Linear(in_features=384, out_features=96, bias=True)
              (drop): Dropout(p=0.0, inplace=False)
            )
            (token_mixer): Pooling(
              (pool): AvgPool2d(kernel_size=3, stride=1, padding=1)
            )
          )
        )
        (downsample): PatchMerging(
          input_resolution=(8, 8), dim=96
          (reduction): Linear(in_features=384, out_features=192, bias=False)
          (norm): LayerNorm((384,), eps=1e-05, elementwise_affine=True)
        )
      )
      (1): BasicLayer(
        dim=192, input_resolution=(4, 4), depth=2
        (blocks): ModuleList(
          (0): SwinTransformerBlock(
            dim=192, input_resolution=(4, 4), num_heads=6, window_size=4, shift_size=0, mlp_ratio=4.0
            (norm1): LayerNorm((192,), eps=1e-05, elementwise_affine=True)
            (drop_path): DropPath(drop_prob=0.018)
            (norm2): LayerNorm((192,), eps=1e-05, elementwise_affine=True)
            (mlp): Mlp(
              (fc1): Linear(in_features=192, out_features=768, bias=True)
              (act): GELU(approximate='none')
              (fc2): Linear(in_features=768, out_features=192, bias=True)
              (drop): Dropout(p=0.0, inplace=False)
            )
            (token_mixer): Pooling(
              (pool): AvgPool2d(kernel_size=3, stride=1, padding=1)
            )
          )
          (1): SwinTransformerBlock(
            dim=192, input_resolution=(4, 4), num_heads=6, window_size=4, shift_size=0, mlp_ratio=4.0
            (norm1): LayerNorm((192,), eps=1e-05, elementwise_affine=True)
            (drop_path): DropPath(drop_prob=0.027)
            (norm2): LayerNorm((192,), eps=1e-05, elementwise_affine=True)
            (mlp): Mlp(
              (fc1): Linear(in_features=192, out_features=768, bias=True)
              (act): GELU(approximate='none')
              (fc2): Linear(in_features=768, out_features=192, bias=True)
              (drop): Dropout(p=0.0, inplace=False)
            )
            (token_mixer): Pooling(
              (pool): AvgPool2d(kernel_size=3, stride=1, padding=1)
            )
          )
        )
        (downsample): PatchMerging(
          input_resolution=(4, 4), dim=192
          (reduction): Linear(in_features=768, out_features=384, bias=False)
          (norm): LayerNorm((768,), eps=1e-05, elementwise_affine=True)
        )
      )
      (2): BasicLayer(
        dim=384, input_resolution=(2, 2), depth=6
        (blocks): ModuleList(
          (0): SwinTransformerBlock(
            dim=384, input_resolution=(2, 2), num_heads=12, window_size=2, shift_size=0, mlp_ratio=4.0
            (norm1): LayerNorm((384,), eps=1e-05, elementwise_affine=True)
            (drop_path): DropPath(drop_prob=0.036)
            (norm2): LayerNorm((384,), eps=1e-05, elementwise_affine=True)
            (mlp): Mlp(
              (fc1): Linear(in_features=384, out_features=1536, bias=True)
              (act): GELU(approximate='none')
              (fc2): Linear(in_features=1536, out_features=384, bias=True)
              (drop): Dropout(p=0.0, inplace=False)
            )
            (token_mixer): Pooling(
              (pool): AvgPool2d(kernel_size=3, stride=1, padding=1)
            )
          )
          (1): SwinTransformerBlock(
            dim=384, input_resolution=(2, 2), num_heads=12, window_size=2, shift_size=0, mlp_ratio=4.0
            (norm1): LayerNorm((384,), eps=1e-05, elementwise_affine=True)
            (drop_path): DropPath(drop_prob=0.045)
            (norm2): LayerNorm((384,), eps=1e-05, elementwise_affine=True)
            (mlp): Mlp(
              (fc1): Linear(in_features=384, out_features=1536, bias=True)
              (act): GELU(approximate='none')
              (fc2): Linear(in_features=1536, out_features=384, bias=True)
              (drop): Dropout(p=0.0, inplace=False)
            )
            (token_mixer): Pooling(
              (pool): AvgPool2d(kernel_size=3, stride=1, padding=1)
            )
          )
          (2): SwinTransformerBlock(
            dim=384, input_resolution=(2, 2), num_heads=12, window_size=2, shift_size=0, mlp_ratio=4.0
            (norm1): LayerNorm((384,), eps=1e-05, elementwise_affine=True)
            (drop_path): DropPath(drop_prob=0.055)
            (norm2): LayerNorm((384,), eps=1e-05, elementwise_affine=True)
            (mlp): Mlp(
              (fc1): Linear(in_features=384, out_features=1536, bias=True)
              (act): GELU(approximate='none')
              (fc2): Linear(in_features=1536, out_features=384, bias=True)
              (drop): Dropout(p=0.0, inplace=False)
            )
            (token_mixer): Pooling(
              (pool): AvgPool2d(kernel_size=3, stride=1, padding=1)
            )
          )
          (3): SwinTransformerBlock(
            dim=384, input_resolution=(2, 2), num_heads=12, window_size=2, shift_size=0, mlp_ratio=4.0
            (norm1): LayerNorm((384,), eps=1e-05, elementwise_affine=True)
            (drop_path): DropPath(drop_prob=0.064)
            (norm2): LayerNorm((384,), eps=1e-05, elementwise_affine=True)
            (mlp): Mlp(
              (fc1): Linear(in_features=384, out_features=1536, bias=True)
              (act): GELU(approximate='none')
              (fc2): Linear(in_features=1536, out_features=384, bias=True)
              (drop): Dropout(p=0.0, inplace=False)
            )
            (token_mixer): Pooling(
              (pool): AvgPool2d(kernel_size=3, stride=1, padding=1)
            )
          )
          (4): SwinTransformerBlock(
            dim=384, input_resolution=(2, 2), num_heads=12, window_size=2, shift_size=0, mlp_ratio=4.0
            (norm1): LayerNorm((384,), eps=1e-05, elementwise_affine=True)
            (drop_path): DropPath(drop_prob=0.073)
            (norm2): LayerNorm((384,), eps=1e-05, elementwise_affine=True)
            (mlp): Mlp(
              (fc1): Linear(in_features=384, out_features=1536, bias=True)
              (act): GELU(approximate='none')
              (fc2): Linear(in_features=1536, out_features=384, bias=True)
              (drop): Dropout(p=0.0, inplace=False)
            )
            (token_mixer): Pooling(
              (pool): AvgPool2d(kernel_size=3, stride=1, padding=1)
            )
          )
          (5): SwinTransformerBlock(
            dim=384, input_resolution=(2, 2), num_heads=12, window_size=2, shift_size=0, mlp_ratio=4.0
            (norm1): LayerNorm((384,), eps=1e-05, elementwise_affine=True)
            (drop_path): DropPath(drop_prob=0.082)
            (norm2): LayerNorm((384,), eps=1e-05, elementwise_affine=True)
            (mlp): Mlp(
              (fc1): Linear(in_features=384, out_features=1536, bias=True)
              (act): GELU(approximate='none')
              (fc2): Linear(in_features=1536, out_features=384, bias=True)
              (drop): Dropout(p=0.0, inplace=False)
            )
            (token_mixer): Pooling(
              (pool): AvgPool2d(kernel_size=3, stride=1, padding=1)
            )
          )
        )
        (downsample): PatchMerging(
          input_resolution=(2, 2), dim=384
          (reduction): Linear(in_features=1536, out_features=768, bias=False)
          (norm): LayerNorm((1536,), eps=1e-05, elementwise_affine=True)
        )
      )
      (3): BasicLayer(
        dim=768, input_resolution=(1, 1), depth=2
        (blocks): ModuleList(
          (0): SwinTransformerBlock(
            dim=768, input_resolution=(1, 1), num_heads=24, window_size=1, shift_size=0, mlp_ratio=4.0
            (norm1): LayerNorm((768,), eps=1e-05, elementwise_affine=True)
            (drop_path): DropPath(drop_prob=0.091)
            (norm2): LayerNorm((768,), eps=1e-05, elementwise_affine=True)
            (mlp): Mlp(
              (fc1): Linear(in_features=768, out_features=3072, bias=True)
              (act): GELU(approximate='none')
              (fc2): Linear(in_features=3072, out_features=768, bias=True)
              (drop): Dropout(p=0.0, inplace=False)
            )
            (token_mixer): Pooling(
              (pool): AvgPool2d(kernel_size=3, stride=1, padding=1)
            )
          )
          (1): SwinTransformerBlock(
            dim=768, input_resolution=(1, 1), num_heads=24, window_size=1, shift_size=0, mlp_ratio=4.0
            (norm1): LayerNorm((768,), eps=1e-05, elementwise_affine=True)
            (drop_path): DropPath(drop_prob=0.100)
            (norm2): LayerNorm((768,), eps=1e-05, elementwise_affine=True)
            (mlp): Mlp(
              (fc1): Linear(in_features=768, out_features=3072, bias=True)
              (act): GELU(approximate='none')
              (fc2): Linear(in_features=3072, out_features=768, bias=True)
              (drop): Dropout(p=0.0, inplace=False)
            )
            (token_mixer): Pooling(
              (pool): AvgPool2d(kernel_size=3, stride=1, padding=1)
            )
          )
        )
      )
    )
    (norm): LayerNorm((768,), eps=1e-05, elementwise_affine=True)
    (avgpool): AdaptiveAvgPool1d(output_size=1)
    (head): Linear(in_features=768, out_features=10, bias=True)
  )
)
Student param size = 18.864298MB
args = Namespace(save_root='./results/try', img_root='./datasets', s_init='', t_model='checkpoint/swinoff-s-22pretrained-4-ckpt.t7', print_freq=50, epochs=200, batch_size=128, lr=0.1, momentum=0.9, weight_decay=0.0001, num_class=10, cuda=1, patch=4, dimhead=512, convkernel=8, size='32', seed=2, note='try', data_name='CIFAR10', t_name='swinoff-s', s_name='swinpool', kd_mode='logits', lambda_kd=1.0, T=4.0, p=2.0, w_dist=25.0, w_angle=50.0, m=2.0, gamma=0.4, P_order=2, w_irg_vert=0.1, w_irg_edge=5.0, w_irg_tran=5.0, sf=1.0, init_var=5.0, att_f=1.0)
unparsed_args = []
----------- Network Initialization --------------
Student: DataParallel(
  (module): SwinTransformer(
    (patch_embed): PatchEmbed(
      (proj): Conv2d(3, 96, kernel_size=(4, 4), stride=(4, 4))
      (norm): LayerNorm((96,), eps=1e-05, elementwise_affine=True)
    )
    (pos_drop): Dropout(p=0.0, inplace=False)
    (layers): ModuleList(
      (0): BasicLayer(
        dim=96, input_resolution=(8, 8), depth=2
        (blocks): ModuleList(
          (0): SwinTransformerBlock(
            dim=96, input_resolution=(8, 8), num_heads=3, window_size=4, shift_size=0, mlp_ratio=4.0
            (norm1): LayerNorm((96,), eps=1e-05, elementwise_affine=True)
            (drop_path): Identity()
            (norm2): LayerNorm((96,), eps=1e-05, elementwise_affine=True)
            (mlp): Mlp(
              (fc1): Linear(in_features=96, out_features=384, bias=True)
              (act): GELU(approximate='none')
              (fc2): Linear(in_features=384, out_features=96, bias=True)
              (drop): Dropout(p=0.0, inplace=False)
            )
            (token_mixer): Pooling(
              (pool): AvgPool2d(kernel_size=3, stride=1, padding=1)
            )
          )
          (1): SwinTransformerBlock(
            dim=96, input_resolution=(8, 8), num_heads=3, window_size=4, shift_size=2, mlp_ratio=4.0
            (norm1): LayerNorm((96,), eps=1e-05, elementwise_affine=True)
            (drop_path): DropPath(drop_prob=0.009)
            (norm2): LayerNorm((96,), eps=1e-05, elementwise_affine=True)
            (mlp): Mlp(
              (fc1): Linear(in_features=96, out_features=384, bias=True)
              (act): GELU(approximate='none')
              (fc2): Linear(in_features=384, out_features=96, bias=True)
              (drop): Dropout(p=0.0, inplace=False)
            )
            (token_mixer): Pooling(
              (pool): AvgPool2d(kernel_size=3, stride=1, padding=1)
            )
          )
        )
        (downsample): PatchMerging(
          input_resolution=(8, 8), dim=96
          (reduction): Linear(in_features=384, out_features=192, bias=False)
          (norm): LayerNorm((384,), eps=1e-05, elementwise_affine=True)
        )
      )
      (1): BasicLayer(
        dim=192, input_resolution=(4, 4), depth=2
        (blocks): ModuleList(
          (0): SwinTransformerBlock(
            dim=192, input_resolution=(4, 4), num_heads=6, window_size=4, shift_size=0, mlp_ratio=4.0
            (norm1): LayerNorm((192,), eps=1e-05, elementwise_affine=True)
            (drop_path): DropPath(drop_prob=0.018)
            (norm2): LayerNorm((192,), eps=1e-05, elementwise_affine=True)
            (mlp): Mlp(
              (fc1): Linear(in_features=192, out_features=768, bias=True)
              (act): GELU(approximate='none')
              (fc2): Linear(in_features=768, out_features=192, bias=True)
              (drop): Dropout(p=0.0, inplace=False)
            )
            (token_mixer): Pooling(
              (pool): AvgPool2d(kernel_size=3, stride=1, padding=1)
            )
          )
          (1): SwinTransformerBlock(
            dim=192, input_resolution=(4, 4), num_heads=6, window_size=4, shift_size=0, mlp_ratio=4.0
            (norm1): LayerNorm((192,), eps=1e-05, elementwise_affine=True)
            (drop_path): DropPath(drop_prob=0.027)
            (norm2): LayerNorm((192,), eps=1e-05, elementwise_affine=True)
            (mlp): Mlp(
              (fc1): Linear(in_features=192, out_features=768, bias=True)
              (act): GELU(approximate='none')
              (fc2): Linear(in_features=768, out_features=192, bias=True)
              (drop): Dropout(p=0.0, inplace=False)
            )
            (token_mixer): Pooling(
              (pool): AvgPool2d(kernel_size=3, stride=1, padding=1)
            )
          )
        )
        (downsample): PatchMerging(
          input_resolution=(4, 4), dim=192
          (reduction): Linear(in_features=768, out_features=384, bias=False)
          (norm): LayerNorm((768,), eps=1e-05, elementwise_affine=True)
        )
      )
      (2): BasicLayer(
        dim=384, input_resolution=(2, 2), depth=6
        (blocks): ModuleList(
          (0): SwinTransformerBlock(
            dim=384, input_resolution=(2, 2), num_heads=12, window_size=2, shift_size=0, mlp_ratio=4.0
            (norm1): LayerNorm((384,), eps=1e-05, elementwise_affine=True)
            (drop_path): DropPath(drop_prob=0.036)
            (norm2): LayerNorm((384,), eps=1e-05, elementwise_affine=True)
            (mlp): Mlp(
              (fc1): Linear(in_features=384, out_features=1536, bias=True)
              (act): GELU(approximate='none')
              (fc2): Linear(in_features=1536, out_features=384, bias=True)
              (drop): Dropout(p=0.0, inplace=False)
            )
            (token_mixer): Pooling(
              (pool): AvgPool2d(kernel_size=3, stride=1, padding=1)
            )
          )
          (1): SwinTransformerBlock(
            dim=384, input_resolution=(2, 2), num_heads=12, window_size=2, shift_size=0, mlp_ratio=4.0
            (norm1): LayerNorm((384,), eps=1e-05, elementwise_affine=True)
            (drop_path): DropPath(drop_prob=0.045)
            (norm2): LayerNorm((384,), eps=1e-05, elementwise_affine=True)
            (mlp): Mlp(
              (fc1): Linear(in_features=384, out_features=1536, bias=True)
              (act): GELU(approximate='none')
              (fc2): Linear(in_features=1536, out_features=384, bias=True)
              (drop): Dropout(p=0.0, inplace=False)
            )
            (token_mixer): Pooling(
              (pool): AvgPool2d(kernel_size=3, stride=1, padding=1)
            )
          )
          (2): SwinTransformerBlock(
            dim=384, input_resolution=(2, 2), num_heads=12, window_size=2, shift_size=0, mlp_ratio=4.0
            (norm1): LayerNorm((384,), eps=1e-05, elementwise_affine=True)
            (drop_path): DropPath(drop_prob=0.055)
            (norm2): LayerNorm((384,), eps=1e-05, elementwise_affine=True)
            (mlp): Mlp(
              (fc1): Linear(in_features=384, out_features=1536, bias=True)
              (act): GELU(approximate='none')
              (fc2): Linear(in_features=1536, out_features=384, bias=True)
              (drop): Dropout(p=0.0, inplace=False)
            )
            (token_mixer): Pooling(
              (pool): AvgPool2d(kernel_size=3, stride=1, padding=1)
            )
          )
          (3): SwinTransformerBlock(
            dim=384, input_resolution=(2, 2), num_heads=12, window_size=2, shift_size=0, mlp_ratio=4.0
            (norm1): LayerNorm((384,), eps=1e-05, elementwise_affine=True)
            (drop_path): DropPath(drop_prob=0.064)
            (norm2): LayerNorm((384,), eps=1e-05, elementwise_affine=True)
            (mlp): Mlp(
              (fc1): Linear(in_features=384, out_features=1536, bias=True)
              (act): GELU(approximate='none')
              (fc2): Linear(in_features=1536, out_features=384, bias=True)
              (drop): Dropout(p=0.0, inplace=False)
            )
            (token_mixer): Pooling(
              (pool): AvgPool2d(kernel_size=3, stride=1, padding=1)
            )
          )
          (4): SwinTransformerBlock(
            dim=384, input_resolution=(2, 2), num_heads=12, window_size=2, shift_size=0, mlp_ratio=4.0
            (norm1): LayerNorm((384,), eps=1e-05, elementwise_affine=True)
            (drop_path): DropPath(drop_prob=0.073)
            (norm2): LayerNorm((384,), eps=1e-05, elementwise_affine=True)
            (mlp): Mlp(
              (fc1): Linear(in_features=384, out_features=1536, bias=True)
              (act): GELU(approximate='none')
              (fc2): Linear(in_features=1536, out_features=384, bias=True)
              (drop): Dropout(p=0.0, inplace=False)
            )
            (token_mixer): Pooling(
              (pool): AvgPool2d(kernel_size=3, stride=1, padding=1)
            )
          )
          (5): SwinTransformerBlock(
            dim=384, input_resolution=(2, 2), num_heads=12, window_size=2, shift_size=0, mlp_ratio=4.0
            (norm1): LayerNorm((384,), eps=1e-05, elementwise_affine=True)
            (drop_path): DropPath(drop_prob=0.082)
            (norm2): LayerNorm((384,), eps=1e-05, elementwise_affine=True)
            (mlp): Mlp(
              (fc1): Linear(in_features=384, out_features=1536, bias=True)
              (act): GELU(approximate='none')
              (fc2): Linear(in_features=1536, out_features=384, bias=True)
              (drop): Dropout(p=0.0, inplace=False)
            )
            (token_mixer): Pooling(
              (pool): AvgPool2d(kernel_size=3, stride=1, padding=1)
            )
          )
        )
        (downsample): PatchMerging(
          input_resolution=(2, 2), dim=384
          (reduction): Linear(in_features=1536, out_features=768, bias=False)
          (norm): LayerNorm((1536,), eps=1e-05, elementwise_affine=True)
        )
      )
      (3): BasicLayer(
        dim=768, input_resolution=(1, 1), depth=2
        (blocks): ModuleList(
          (0): SwinTransformerBlock(
            dim=768, input_resolution=(1, 1), num_heads=24, window_size=1, shift_size=0, mlp_ratio=4.0
            (norm1): LayerNorm((768,), eps=1e-05, elementwise_affine=True)
            (drop_path): DropPath(drop_prob=0.091)
            (norm2): LayerNorm((768,), eps=1e-05, elementwise_affine=True)
            (mlp): Mlp(
              (fc1): Linear(in_features=768, out_features=3072, bias=True)
              (act): GELU(approximate='none')
              (fc2): Linear(in_features=3072, out_features=768, bias=True)
              (drop): Dropout(p=0.0, inplace=False)
            )
            (token_mixer): Pooling(
              (pool): AvgPool2d(kernel_size=3, stride=1, padding=1)
            )
          )
          (1): SwinTransformerBlock(
            dim=768, input_resolution=(1, 1), num_heads=24, window_size=1, shift_size=0, mlp_ratio=4.0
            (norm1): LayerNorm((768,), eps=1e-05, elementwise_affine=True)
            (drop_path): DropPath(drop_prob=0.100)
            (norm2): LayerNorm((768,), eps=1e-05, elementwise_affine=True)
            (mlp): Mlp(
              (fc1): Linear(in_features=768, out_features=3072, bias=True)
              (act): GELU(approximate='none')
              (fc2): Linear(in_features=3072, out_features=768, bias=True)
              (drop): Dropout(p=0.0, inplace=False)
            )
            (token_mixer): Pooling(
              (pool): AvgPool2d(kernel_size=3, stride=1, padding=1)
            )
          )
        )
      )
    )
    (norm): LayerNorm((768,), eps=1e-05, elementwise_affine=True)
    (avgpool): AdaptiveAvgPool1d(output_size=1)
    (head): Linear(in_features=768, out_features=10, bias=True)
  )
)
Student param size = 18.864298MB
args = Namespace(save_root='./results/try', img_root='./datasets', s_init='', t_model='checkpoint/swinoff-s-22pretrained-4-ckpt.t7', print_freq=50, epochs=200, batch_size=128, lr=0.1, momentum=0.9, weight_decay=0.0001, num_class=10, cuda=1, patch=4, dimhead=512, convkernel=8, size='32', seed=2, note='try', data_name='CIFAR10', t_name='swinoff-s', s_name='swinpool', kd_mode='logits', lambda_kd=1.0, T=4.0, p=2.0, w_dist=25.0, w_angle=50.0, m=2.0, gamma=0.4, P_order=2, w_irg_vert=0.1, w_irg_edge=5.0, w_irg_tran=5.0, sf=1.0, init_var=5.0, att_f=1.0)
unparsed_args = []
----------- Network Initialization --------------
Student: DataParallel(
  (module): SwinTransformer(
    (patch_embed): PatchEmbed(
      (proj): Conv2d(3, 96, kernel_size=(4, 4), stride=(4, 4))
      (norm): LayerNorm((96,), eps=1e-05, elementwise_affine=True)
    )
    (pos_drop): Dropout(p=0.0, inplace=False)
    (layers): ModuleList(
      (0): BasicLayer(
        dim=96, input_resolution=(8, 8), depth=2
        (blocks): ModuleList(
          (0): SwinTransformerBlock(
            dim=96, input_resolution=(8, 8), num_heads=3, window_size=4, shift_size=0, mlp_ratio=4.0
            (norm1): LayerNorm((96,), eps=1e-05, elementwise_affine=True)
            (drop_path): Identity()
            (norm2): LayerNorm((96,), eps=1e-05, elementwise_affine=True)
            (mlp): Mlp(
              (fc1): Linear(in_features=96, out_features=384, bias=True)
              (act): GELU(approximate='none')
              (fc2): Linear(in_features=384, out_features=96, bias=True)
              (drop): Dropout(p=0.0, inplace=False)
            )
            (token_mixer): Pooling(
              (pool): AvgPool2d(kernel_size=3, stride=1, padding=1)
            )
          )
          (1): SwinTransformerBlock(
            dim=96, input_resolution=(8, 8), num_heads=3, window_size=4, shift_size=2, mlp_ratio=4.0
            (norm1): LayerNorm((96,), eps=1e-05, elementwise_affine=True)
            (drop_path): DropPath(drop_prob=0.009)
            (norm2): LayerNorm((96,), eps=1e-05, elementwise_affine=True)
            (mlp): Mlp(
              (fc1): Linear(in_features=96, out_features=384, bias=True)
              (act): GELU(approximate='none')
              (fc2): Linear(in_features=384, out_features=96, bias=True)
              (drop): Dropout(p=0.0, inplace=False)
            )
            (token_mixer): Pooling(
              (pool): AvgPool2d(kernel_size=3, stride=1, padding=1)
            )
          )
        )
        (downsample): PatchMerging(
          input_resolution=(8, 8), dim=96
          (reduction): Linear(in_features=384, out_features=192, bias=False)
          (norm): LayerNorm((384,), eps=1e-05, elementwise_affine=True)
        )
      )
      (1): BasicLayer(
        dim=192, input_resolution=(4, 4), depth=2
        (blocks): ModuleList(
          (0): SwinTransformerBlock(
            dim=192, input_resolution=(4, 4), num_heads=6, window_size=4, shift_size=0, mlp_ratio=4.0
            (norm1): LayerNorm((192,), eps=1e-05, elementwise_affine=True)
            (drop_path): DropPath(drop_prob=0.018)
            (norm2): LayerNorm((192,), eps=1e-05, elementwise_affine=True)
            (mlp): Mlp(
              (fc1): Linear(in_features=192, out_features=768, bias=True)
              (act): GELU(approximate='none')
              (fc2): Linear(in_features=768, out_features=192, bias=True)
              (drop): Dropout(p=0.0, inplace=False)
            )
            (token_mixer): Pooling(
              (pool): AvgPool2d(kernel_size=3, stride=1, padding=1)
            )
          )
          (1): SwinTransformerBlock(
            dim=192, input_resolution=(4, 4), num_heads=6, window_size=4, shift_size=0, mlp_ratio=4.0
            (norm1): LayerNorm((192,), eps=1e-05, elementwise_affine=True)
            (drop_path): DropPath(drop_prob=0.027)
            (norm2): LayerNorm((192,), eps=1e-05, elementwise_affine=True)
            (mlp): Mlp(
              (fc1): Linear(in_features=192, out_features=768, bias=True)
              (act): GELU(approximate='none')
              (fc2): Linear(in_features=768, out_features=192, bias=True)
              (drop): Dropout(p=0.0, inplace=False)
            )
            (token_mixer): Pooling(
              (pool): AvgPool2d(kernel_size=3, stride=1, padding=1)
            )
          )
        )
        (downsample): PatchMerging(
          input_resolution=(4, 4), dim=192
          (reduction): Linear(in_features=768, out_features=384, bias=False)
          (norm): LayerNorm((768,), eps=1e-05, elementwise_affine=True)
        )
      )
      (2): BasicLayer(
        dim=384, input_resolution=(2, 2), depth=6
        (blocks): ModuleList(
          (0): SwinTransformerBlock(
            dim=384, input_resolution=(2, 2), num_heads=12, window_size=2, shift_size=0, mlp_ratio=4.0
            (norm1): LayerNorm((384,), eps=1e-05, elementwise_affine=True)
            (drop_path): DropPath(drop_prob=0.036)
            (norm2): LayerNorm((384,), eps=1e-05, elementwise_affine=True)
            (mlp): Mlp(
              (fc1): Linear(in_features=384, out_features=1536, bias=True)
              (act): GELU(approximate='none')
              (fc2): Linear(in_features=1536, out_features=384, bias=True)
              (drop): Dropout(p=0.0, inplace=False)
            )
            (token_mixer): Pooling(
              (pool): AvgPool2d(kernel_size=3, stride=1, padding=1)
            )
          )
          (1): SwinTransformerBlock(
            dim=384, input_resolution=(2, 2), num_heads=12, window_size=2, shift_size=0, mlp_ratio=4.0
            (norm1): LayerNorm((384,), eps=1e-05, elementwise_affine=True)
            (drop_path): DropPath(drop_prob=0.045)
            (norm2): LayerNorm((384,), eps=1e-05, elementwise_affine=True)
            (mlp): Mlp(
              (fc1): Linear(in_features=384, out_features=1536, bias=True)
              (act): GELU(approximate='none')
              (fc2): Linear(in_features=1536, out_features=384, bias=True)
              (drop): Dropout(p=0.0, inplace=False)
            )
            (token_mixer): Pooling(
              (pool): AvgPool2d(kernel_size=3, stride=1, padding=1)
            )
          )
          (2): SwinTransformerBlock(
            dim=384, input_resolution=(2, 2), num_heads=12, window_size=2, shift_size=0, mlp_ratio=4.0
            (norm1): LayerNorm((384,), eps=1e-05, elementwise_affine=True)
            (drop_path): DropPath(drop_prob=0.055)
            (norm2): LayerNorm((384,), eps=1e-05, elementwise_affine=True)
            (mlp): Mlp(
              (fc1): Linear(in_features=384, out_features=1536, bias=True)
              (act): GELU(approximate='none')
              (fc2): Linear(in_features=1536, out_features=384, bias=True)
              (drop): Dropout(p=0.0, inplace=False)
            )
            (token_mixer): Pooling(
              (pool): AvgPool2d(kernel_size=3, stride=1, padding=1)
            )
          )
          (3): SwinTransformerBlock(
            dim=384, input_resolution=(2, 2), num_heads=12, window_size=2, shift_size=0, mlp_ratio=4.0
            (norm1): LayerNorm((384,), eps=1e-05, elementwise_affine=True)
            (drop_path): DropPath(drop_prob=0.064)
            (norm2): LayerNorm((384,), eps=1e-05, elementwise_affine=True)
            (mlp): Mlp(
              (fc1): Linear(in_features=384, out_features=1536, bias=True)
              (act): GELU(approximate='none')
              (fc2): Linear(in_features=1536, out_features=384, bias=True)
              (drop): Dropout(p=0.0, inplace=False)
            )
            (token_mixer): Pooling(
              (pool): AvgPool2d(kernel_size=3, stride=1, padding=1)
            )
          )
          (4): SwinTransformerBlock(
            dim=384, input_resolution=(2, 2), num_heads=12, window_size=2, shift_size=0, mlp_ratio=4.0
            (norm1): LayerNorm((384,), eps=1e-05, elementwise_affine=True)
            (drop_path): DropPath(drop_prob=0.073)
            (norm2): LayerNorm((384,), eps=1e-05, elementwise_affine=True)
            (mlp): Mlp(
              (fc1): Linear(in_features=384, out_features=1536, bias=True)
              (act): GELU(approximate='none')
              (fc2): Linear(in_features=1536, out_features=384, bias=True)
              (drop): Dropout(p=0.0, inplace=False)
            )
            (token_mixer): Pooling(
              (pool): AvgPool2d(kernel_size=3, stride=1, padding=1)
            )
          )
          (5): SwinTransformerBlock(
            dim=384, input_resolution=(2, 2), num_heads=12, window_size=2, shift_size=0, mlp_ratio=4.0
            (norm1): LayerNorm((384,), eps=1e-05, elementwise_affine=True)
            (drop_path): DropPath(drop_prob=0.082)
            (norm2): LayerNorm((384,), eps=1e-05, elementwise_affine=True)
            (mlp): Mlp(
              (fc1): Linear(in_features=384, out_features=1536, bias=True)
              (act): GELU(approximate='none')
              (fc2): Linear(in_features=1536, out_features=384, bias=True)
              (drop): Dropout(p=0.0, inplace=False)
            )
            (token_mixer): Pooling(
              (pool): AvgPool2d(kernel_size=3, stride=1, padding=1)
            )
          )
        )
        (downsample): PatchMerging(
          input_resolution=(2, 2), dim=384
          (reduction): Linear(in_features=1536, out_features=768, bias=False)
          (norm): LayerNorm((1536,), eps=1e-05, elementwise_affine=True)
        )
      )
      (3): BasicLayer(
        dim=768, input_resolution=(1, 1), depth=2
        (blocks): ModuleList(
          (0): SwinTransformerBlock(
            dim=768, input_resolution=(1, 1), num_heads=24, window_size=1, shift_size=0, mlp_ratio=4.0
            (norm1): LayerNorm((768,), eps=1e-05, elementwise_affine=True)
            (drop_path): DropPath(drop_prob=0.091)
            (norm2): LayerNorm((768,), eps=1e-05, elementwise_affine=True)
            (mlp): Mlp(
              (fc1): Linear(in_features=768, out_features=3072, bias=True)
              (act): GELU(approximate='none')
              (fc2): Linear(in_features=3072, out_features=768, bias=True)
              (drop): Dropout(p=0.0, inplace=False)
            )
            (token_mixer): Pooling(
              (pool): AvgPool2d(kernel_size=3, stride=1, padding=1)
            )
          )
          (1): SwinTransformerBlock(
            dim=768, input_resolution=(1, 1), num_heads=24, window_size=1, shift_size=0, mlp_ratio=4.0
            (norm1): LayerNorm((768,), eps=1e-05, elementwise_affine=True)
            (drop_path): DropPath(drop_prob=0.100)
            (norm2): LayerNorm((768,), eps=1e-05, elementwise_affine=True)
            (mlp): Mlp(
              (fc1): Linear(in_features=768, out_features=3072, bias=True)
              (act): GELU(approximate='none')
              (fc2): Linear(in_features=3072, out_features=768, bias=True)
              (drop): Dropout(p=0.0, inplace=False)
            )
            (token_mixer): Pooling(
              (pool): AvgPool2d(kernel_size=3, stride=1, padding=1)
            )
          )
        )
      )
    )
    (norm): LayerNorm((768,), eps=1e-05, elementwise_affine=True)
    (avgpool): AdaptiveAvgPool1d(output_size=1)
    (head): Linear(in_features=768, out_features=10, bias=True)
  )
)
Student param size = 18.864298MB
args = Namespace(save_root='./results/try', img_root='./datasets', s_init='', t_model='checkpoint/swinoff-s-22pretrained-4-ckpt.t7', print_freq=50, epochs=200, batch_size=128, lr=0.1, momentum=0.9, weight_decay=0.0001, num_class=10, cuda=1, patch=4, dimhead=512, convkernel=8, size='32', seed=2, note='try', data_name='CIFAR10', t_name='swinoff-s', s_name='swinpool', kd_mode='logits', lambda_kd=1.0, T=4.0, p=2.0, w_dist=25.0, w_angle=50.0, m=2.0, gamma=0.4, P_order=2, w_irg_vert=0.1, w_irg_edge=5.0, w_irg_tran=5.0, sf=1.0, init_var=5.0, att_f=1.0)
unparsed_args = []
----------- Network Initialization --------------
Student: DataParallel(
  (module): SwinTransformer(
    (patch_embed): PatchEmbed(
      (proj): Conv2d(3, 96, kernel_size=(4, 4), stride=(4, 4))
      (norm): LayerNorm((96,), eps=1e-05, elementwise_affine=True)
    )
    (pos_drop): Dropout(p=0.0, inplace=False)
    (layers): ModuleList(
      (0): BasicLayer(
        dim=96, input_resolution=(8, 8), depth=2
        (blocks): ModuleList(
          (0): SwinTransformerBlock(
            dim=96, input_resolution=(8, 8), num_heads=3, window_size=4, shift_size=0, mlp_ratio=4.0
            (norm1): LayerNorm((96,), eps=1e-05, elementwise_affine=True)
            (drop_path): Identity()
            (norm2): LayerNorm((96,), eps=1e-05, elementwise_affine=True)
            (mlp): Mlp(
              (fc1): Linear(in_features=96, out_features=384, bias=True)
              (act): GELU(approximate='none')
              (fc2): Linear(in_features=384, out_features=96, bias=True)
              (drop): Dropout(p=0.0, inplace=False)
            )
            (token_mixer): Pooling(
              (pool): AvgPool2d(kernel_size=3, stride=1, padding=1)
            )
          )
          (1): SwinTransformerBlock(
            dim=96, input_resolution=(8, 8), num_heads=3, window_size=4, shift_size=2, mlp_ratio=4.0
            (norm1): LayerNorm((96,), eps=1e-05, elementwise_affine=True)
            (drop_path): DropPath(drop_prob=0.009)
            (norm2): LayerNorm((96,), eps=1e-05, elementwise_affine=True)
            (mlp): Mlp(
              (fc1): Linear(in_features=96, out_features=384, bias=True)
              (act): GELU(approximate='none')
              (fc2): Linear(in_features=384, out_features=96, bias=True)
              (drop): Dropout(p=0.0, inplace=False)
            )
            (token_mixer): Pooling(
              (pool): AvgPool2d(kernel_size=3, stride=1, padding=1)
            )
          )
        )
        (downsample): PatchMerging(
          input_resolution=(8, 8), dim=96
          (reduction): Linear(in_features=384, out_features=192, bias=False)
          (norm): LayerNorm((384,), eps=1e-05, elementwise_affine=True)
        )
      )
      (1): BasicLayer(
        dim=192, input_resolution=(4, 4), depth=2
        (blocks): ModuleList(
          (0): SwinTransformerBlock(
            dim=192, input_resolution=(4, 4), num_heads=6, window_size=4, shift_size=0, mlp_ratio=4.0
            (norm1): LayerNorm((192,), eps=1e-05, elementwise_affine=True)
            (drop_path): DropPath(drop_prob=0.018)
            (norm2): LayerNorm((192,), eps=1e-05, elementwise_affine=True)
            (mlp): Mlp(
              (fc1): Linear(in_features=192, out_features=768, bias=True)
              (act): GELU(approximate='none')
              (fc2): Linear(in_features=768, out_features=192, bias=True)
              (drop): Dropout(p=0.0, inplace=False)
            )
            (token_mixer): Pooling(
              (pool): AvgPool2d(kernel_size=3, stride=1, padding=1)
            )
          )
          (1): SwinTransformerBlock(
            dim=192, input_resolution=(4, 4), num_heads=6, window_size=4, shift_size=0, mlp_ratio=4.0
            (norm1): LayerNorm((192,), eps=1e-05, elementwise_affine=True)
            (drop_path): DropPath(drop_prob=0.027)
            (norm2): LayerNorm((192,), eps=1e-05, elementwise_affine=True)
            (mlp): Mlp(
              (fc1): Linear(in_features=192, out_features=768, bias=True)
              (act): GELU(approximate='none')
              (fc2): Linear(in_features=768, out_features=192, bias=True)
              (drop): Dropout(p=0.0, inplace=False)
            )
            (token_mixer): Pooling(
              (pool): AvgPool2d(kernel_size=3, stride=1, padding=1)
            )
          )
        )
        (downsample): PatchMerging(
          input_resolution=(4, 4), dim=192
          (reduction): Linear(in_features=768, out_features=384, bias=False)
          (norm): LayerNorm((768,), eps=1e-05, elementwise_affine=True)
        )
      )
      (2): BasicLayer(
        dim=384, input_resolution=(2, 2), depth=6
        (blocks): ModuleList(
          (0): SwinTransformerBlock(
            dim=384, input_resolution=(2, 2), num_heads=12, window_size=2, shift_size=0, mlp_ratio=4.0
            (norm1): LayerNorm((384,), eps=1e-05, elementwise_affine=True)
            (drop_path): DropPath(drop_prob=0.036)
            (norm2): LayerNorm((384,), eps=1e-05, elementwise_affine=True)
            (mlp): Mlp(
              (fc1): Linear(in_features=384, out_features=1536, bias=True)
              (act): GELU(approximate='none')
              (fc2): Linear(in_features=1536, out_features=384, bias=True)
              (drop): Dropout(p=0.0, inplace=False)
            )
            (token_mixer): Pooling(
              (pool): AvgPool2d(kernel_size=3, stride=1, padding=1)
            )
          )
          (1): SwinTransformerBlock(
            dim=384, input_resolution=(2, 2), num_heads=12, window_size=2, shift_size=0, mlp_ratio=4.0
            (norm1): LayerNorm((384,), eps=1e-05, elementwise_affine=True)
            (drop_path): DropPath(drop_prob=0.045)
            (norm2): LayerNorm((384,), eps=1e-05, elementwise_affine=True)
            (mlp): Mlp(
              (fc1): Linear(in_features=384, out_features=1536, bias=True)
              (act): GELU(approximate='none')
              (fc2): Linear(in_features=1536, out_features=384, bias=True)
              (drop): Dropout(p=0.0, inplace=False)
            )
            (token_mixer): Pooling(
              (pool): AvgPool2d(kernel_size=3, stride=1, padding=1)
            )
          )
          (2): SwinTransformerBlock(
            dim=384, input_resolution=(2, 2), num_heads=12, window_size=2, shift_size=0, mlp_ratio=4.0
            (norm1): LayerNorm((384,), eps=1e-05, elementwise_affine=True)
            (drop_path): DropPath(drop_prob=0.055)
            (norm2): LayerNorm((384,), eps=1e-05, elementwise_affine=True)
            (mlp): Mlp(
              (fc1): Linear(in_features=384, out_features=1536, bias=True)
              (act): GELU(approximate='none')
              (fc2): Linear(in_features=1536, out_features=384, bias=True)
              (drop): Dropout(p=0.0, inplace=False)
            )
            (token_mixer): Pooling(
              (pool): AvgPool2d(kernel_size=3, stride=1, padding=1)
            )
          )
          (3): SwinTransformerBlock(
            dim=384, input_resolution=(2, 2), num_heads=12, window_size=2, shift_size=0, mlp_ratio=4.0
            (norm1): LayerNorm((384,), eps=1e-05, elementwise_affine=True)
            (drop_path): DropPath(drop_prob=0.064)
            (norm2): LayerNorm((384,), eps=1e-05, elementwise_affine=True)
            (mlp): Mlp(
              (fc1): Linear(in_features=384, out_features=1536, bias=True)
              (act): GELU(approximate='none')
              (fc2): Linear(in_features=1536, out_features=384, bias=True)
              (drop): Dropout(p=0.0, inplace=False)
            )
            (token_mixer): Pooling(
              (pool): AvgPool2d(kernel_size=3, stride=1, padding=1)
            )
          )
          (4): SwinTransformerBlock(
            dim=384, input_resolution=(2, 2), num_heads=12, window_size=2, shift_size=0, mlp_ratio=4.0
            (norm1): LayerNorm((384,), eps=1e-05, elementwise_affine=True)
            (drop_path): DropPath(drop_prob=0.073)
            (norm2): LayerNorm((384,), eps=1e-05, elementwise_affine=True)
            (mlp): Mlp(
              (fc1): Linear(in_features=384, out_features=1536, bias=True)
              (act): GELU(approximate='none')
              (fc2): Linear(in_features=1536, out_features=384, bias=True)
              (drop): Dropout(p=0.0, inplace=False)
            )
            (token_mixer): Pooling(
              (pool): AvgPool2d(kernel_size=3, stride=1, padding=1)
            )
          )
          (5): SwinTransformerBlock(
            dim=384, input_resolution=(2, 2), num_heads=12, window_size=2, shift_size=0, mlp_ratio=4.0
            (norm1): LayerNorm((384,), eps=1e-05, elementwise_affine=True)
            (drop_path): DropPath(drop_prob=0.082)
            (norm2): LayerNorm((384,), eps=1e-05, elementwise_affine=True)
            (mlp): Mlp(
              (fc1): Linear(in_features=384, out_features=1536, bias=True)
              (act): GELU(approximate='none')
              (fc2): Linear(in_features=1536, out_features=384, bias=True)
              (drop): Dropout(p=0.0, inplace=False)
            )
            (token_mixer): Pooling(
              (pool): AvgPool2d(kernel_size=3, stride=1, padding=1)
            )
          )
        )
        (downsample): PatchMerging(
          input_resolution=(2, 2), dim=384
          (reduction): Linear(in_features=1536, out_features=768, bias=False)
          (norm): LayerNorm((1536,), eps=1e-05, elementwise_affine=True)
        )
      )
      (3): BasicLayer(
        dim=768, input_resolution=(1, 1), depth=2
        (blocks): ModuleList(
          (0): SwinTransformerBlock(
            dim=768, input_resolution=(1, 1), num_heads=24, window_size=1, shift_size=0, mlp_ratio=4.0
            (norm1): LayerNorm((768,), eps=1e-05, elementwise_affine=True)
            (drop_path): DropPath(drop_prob=0.091)
            (norm2): LayerNorm((768,), eps=1e-05, elementwise_affine=True)
            (mlp): Mlp(
              (fc1): Linear(in_features=768, out_features=3072, bias=True)
              (act): GELU(approximate='none')
              (fc2): Linear(in_features=3072, out_features=768, bias=True)
              (drop): Dropout(p=0.0, inplace=False)
            )
            (token_mixer): Pooling(
              (pool): AvgPool2d(kernel_size=3, stride=1, padding=1)
            )
          )
          (1): SwinTransformerBlock(
            dim=768, input_resolution=(1, 1), num_heads=24, window_size=1, shift_size=0, mlp_ratio=4.0
            (norm1): LayerNorm((768,), eps=1e-05, elementwise_affine=True)
            (drop_path): DropPath(drop_prob=0.100)
            (norm2): LayerNorm((768,), eps=1e-05, elementwise_affine=True)
            (mlp): Mlp(
              (fc1): Linear(in_features=768, out_features=3072, bias=True)
              (act): GELU(approximate='none')
              (fc2): Linear(in_features=3072, out_features=768, bias=True)
              (drop): Dropout(p=0.0, inplace=False)
            )
            (token_mixer): Pooling(
              (pool): AvgPool2d(kernel_size=3, stride=1, padding=1)
            )
          )
        )
      )
    )
    (norm): LayerNorm((768,), eps=1e-05, elementwise_affine=True)
    (avgpool): AdaptiveAvgPool1d(output_size=1)
    (head): Linear(in_features=768, out_features=10, bias=True)
  )
)
Student param size = 18.864298MB
args = Namespace(save_root='./results/try', img_root='./datasets', s_init='', t_model='checkpoint/swinoff-s-22pretrained-4-ckpt.t7', print_freq=50, epochs=200, batch_size=128, lr=0.1, momentum=0.9, weight_decay=0.0001, num_class=10, cuda=1, patch=4, dimhead=512, convkernel=8, size='32', seed=2, note='try', data_name='CIFAR10', t_name='swinoff-s', s_name='swinpool', kd_mode='logits', lambda_kd=1.0, T=4.0, p=2.0, w_dist=25.0, w_angle=50.0, m=2.0, gamma=0.4, P_order=2, w_irg_vert=0.1, w_irg_edge=5.0, w_irg_tran=5.0, sf=1.0, init_var=5.0, att_f=1.0)
unparsed_args = []
----------- Network Initialization --------------
Student: DataParallel(
  (module): SwinTransformer(
    (patch_embed): PatchEmbed(
      (proj): Conv2d(3, 96, kernel_size=(4, 4), stride=(4, 4))
      (norm): LayerNorm((96,), eps=1e-05, elementwise_affine=True)
    )
    (pos_drop): Dropout(p=0.0, inplace=False)
    (layers): ModuleList(
      (0): BasicLayer(
        dim=96, input_resolution=(8, 8), depth=2
        (blocks): ModuleList(
          (0): SwinTransformerBlock(
            dim=96, input_resolution=(8, 8), num_heads=3, window_size=4, shift_size=0, mlp_ratio=4.0
            (norm1): LayerNorm((96,), eps=1e-05, elementwise_affine=True)
            (drop_path): Identity()
            (norm2): LayerNorm((96,), eps=1e-05, elementwise_affine=True)
            (mlp): Mlp(
              (fc1): Linear(in_features=96, out_features=384, bias=True)
              (act): GELU(approximate='none')
              (fc2): Linear(in_features=384, out_features=96, bias=True)
              (drop): Dropout(p=0.0, inplace=False)
            )
            (token_mixer): Pooling(
              (pool): AvgPool2d(kernel_size=3, stride=1, padding=1)
            )
          )
          (1): SwinTransformerBlock(
            dim=96, input_resolution=(8, 8), num_heads=3, window_size=4, shift_size=2, mlp_ratio=4.0
            (norm1): LayerNorm((96,), eps=1e-05, elementwise_affine=True)
            (drop_path): DropPath(drop_prob=0.009)
            (norm2): LayerNorm((96,), eps=1e-05, elementwise_affine=True)
            (mlp): Mlp(
              (fc1): Linear(in_features=96, out_features=384, bias=True)
              (act): GELU(approximate='none')
              (fc2): Linear(in_features=384, out_features=96, bias=True)
              (drop): Dropout(p=0.0, inplace=False)
            )
            (token_mixer): Pooling(
              (pool): AvgPool2d(kernel_size=3, stride=1, padding=1)
            )
          )
        )
        (downsample): PatchMerging(
          input_resolution=(8, 8), dim=96
          (reduction): Linear(in_features=384, out_features=192, bias=False)
          (norm): LayerNorm((384,), eps=1e-05, elementwise_affine=True)
        )
      )
      (1): BasicLayer(
        dim=192, input_resolution=(4, 4), depth=2
        (blocks): ModuleList(
          (0): SwinTransformerBlock(
            dim=192, input_resolution=(4, 4), num_heads=6, window_size=4, shift_size=0, mlp_ratio=4.0
            (norm1): LayerNorm((192,), eps=1e-05, elementwise_affine=True)
            (drop_path): DropPath(drop_prob=0.018)
            (norm2): LayerNorm((192,), eps=1e-05, elementwise_affine=True)
            (mlp): Mlp(
              (fc1): Linear(in_features=192, out_features=768, bias=True)
              (act): GELU(approximate='none')
              (fc2): Linear(in_features=768, out_features=192, bias=True)
              (drop): Dropout(p=0.0, inplace=False)
            )
            (token_mixer): Pooling(
              (pool): AvgPool2d(kernel_size=3, stride=1, padding=1)
            )
          )
          (1): SwinTransformerBlock(
            dim=192, input_resolution=(4, 4), num_heads=6, window_size=4, shift_size=0, mlp_ratio=4.0
            (norm1): LayerNorm((192,), eps=1e-05, elementwise_affine=True)
            (drop_path): DropPath(drop_prob=0.027)
            (norm2): LayerNorm((192,), eps=1e-05, elementwise_affine=True)
            (mlp): Mlp(
              (fc1): Linear(in_features=192, out_features=768, bias=True)
              (act): GELU(approximate='none')
              (fc2): Linear(in_features=768, out_features=192, bias=True)
              (drop): Dropout(p=0.0, inplace=False)
            )
            (token_mixer): Pooling(
              (pool): AvgPool2d(kernel_size=3, stride=1, padding=1)
            )
          )
        )
        (downsample): PatchMerging(
          input_resolution=(4, 4), dim=192
          (reduction): Linear(in_features=768, out_features=384, bias=False)
          (norm): LayerNorm((768,), eps=1e-05, elementwise_affine=True)
        )
      )
      (2): BasicLayer(
        dim=384, input_resolution=(2, 2), depth=6
        (blocks): ModuleList(
          (0): SwinTransformerBlock(
            dim=384, input_resolution=(2, 2), num_heads=12, window_size=2, shift_size=0, mlp_ratio=4.0
            (norm1): LayerNorm((384,), eps=1e-05, elementwise_affine=True)
            (drop_path): DropPath(drop_prob=0.036)
            (norm2): LayerNorm((384,), eps=1e-05, elementwise_affine=True)
            (mlp): Mlp(
              (fc1): Linear(in_features=384, out_features=1536, bias=True)
              (act): GELU(approximate='none')
              (fc2): Linear(in_features=1536, out_features=384, bias=True)
              (drop): Dropout(p=0.0, inplace=False)
            )
            (token_mixer): Pooling(
              (pool): AvgPool2d(kernel_size=3, stride=1, padding=1)
            )
          )
          (1): SwinTransformerBlock(
            dim=384, input_resolution=(2, 2), num_heads=12, window_size=2, shift_size=0, mlp_ratio=4.0
            (norm1): LayerNorm((384,), eps=1e-05, elementwise_affine=True)
            (drop_path): DropPath(drop_prob=0.045)
            (norm2): LayerNorm((384,), eps=1e-05, elementwise_affine=True)
            (mlp): Mlp(
              (fc1): Linear(in_features=384, out_features=1536, bias=True)
              (act): GELU(approximate='none')
              (fc2): Linear(in_features=1536, out_features=384, bias=True)
              (drop): Dropout(p=0.0, inplace=False)
            )
            (token_mixer): Pooling(
              (pool): AvgPool2d(kernel_size=3, stride=1, padding=1)
            )
          )
          (2): SwinTransformerBlock(
            dim=384, input_resolution=(2, 2), num_heads=12, window_size=2, shift_size=0, mlp_ratio=4.0
            (norm1): LayerNorm((384,), eps=1e-05, elementwise_affine=True)
            (drop_path): DropPath(drop_prob=0.055)
            (norm2): LayerNorm((384,), eps=1e-05, elementwise_affine=True)
            (mlp): Mlp(
              (fc1): Linear(in_features=384, out_features=1536, bias=True)
              (act): GELU(approximate='none')
              (fc2): Linear(in_features=1536, out_features=384, bias=True)
              (drop): Dropout(p=0.0, inplace=False)
            )
            (token_mixer): Pooling(
              (pool): AvgPool2d(kernel_size=3, stride=1, padding=1)
            )
          )
          (3): SwinTransformerBlock(
            dim=384, input_resolution=(2, 2), num_heads=12, window_size=2, shift_size=0, mlp_ratio=4.0
            (norm1): LayerNorm((384,), eps=1e-05, elementwise_affine=True)
            (drop_path): DropPath(drop_prob=0.064)
            (norm2): LayerNorm((384,), eps=1e-05, elementwise_affine=True)
            (mlp): Mlp(
              (fc1): Linear(in_features=384, out_features=1536, bias=True)
              (act): GELU(approximate='none')
              (fc2): Linear(in_features=1536, out_features=384, bias=True)
              (drop): Dropout(p=0.0, inplace=False)
            )
            (token_mixer): Pooling(
              (pool): AvgPool2d(kernel_size=3, stride=1, padding=1)
            )
          )
          (4): SwinTransformerBlock(
            dim=384, input_resolution=(2, 2), num_heads=12, window_size=2, shift_size=0, mlp_ratio=4.0
            (norm1): LayerNorm((384,), eps=1e-05, elementwise_affine=True)
            (drop_path): DropPath(drop_prob=0.073)
            (norm2): LayerNorm((384,), eps=1e-05, elementwise_affine=True)
            (mlp): Mlp(
              (fc1): Linear(in_features=384, out_features=1536, bias=True)
              (act): GELU(approximate='none')
              (fc2): Linear(in_features=1536, out_features=384, bias=True)
              (drop): Dropout(p=0.0, inplace=False)
            )
            (token_mixer): Pooling(
              (pool): AvgPool2d(kernel_size=3, stride=1, padding=1)
            )
          )
          (5): SwinTransformerBlock(
            dim=384, input_resolution=(2, 2), num_heads=12, window_size=2, shift_size=0, mlp_ratio=4.0
            (norm1): LayerNorm((384,), eps=1e-05, elementwise_affine=True)
            (drop_path): DropPath(drop_prob=0.082)
            (norm2): LayerNorm((384,), eps=1e-05, elementwise_affine=True)
            (mlp): Mlp(
              (fc1): Linear(in_features=384, out_features=1536, bias=True)
              (act): GELU(approximate='none')
              (fc2): Linear(in_features=1536, out_features=384, bias=True)
              (drop): Dropout(p=0.0, inplace=False)
            )
            (token_mixer): Pooling(
              (pool): AvgPool2d(kernel_size=3, stride=1, padding=1)
            )
          )
        )
        (downsample): PatchMerging(
          input_resolution=(2, 2), dim=384
          (reduction): Linear(in_features=1536, out_features=768, bias=False)
          (norm): LayerNorm((1536,), eps=1e-05, elementwise_affine=True)
        )
      )
      (3): BasicLayer(
        dim=768, input_resolution=(1, 1), depth=2
        (blocks): ModuleList(
          (0): SwinTransformerBlock(
            dim=768, input_resolution=(1, 1), num_heads=24, window_size=1, shift_size=0, mlp_ratio=4.0
            (norm1): LayerNorm((768,), eps=1e-05, elementwise_affine=True)
            (drop_path): DropPath(drop_prob=0.091)
            (norm2): LayerNorm((768,), eps=1e-05, elementwise_affine=True)
            (mlp): Mlp(
              (fc1): Linear(in_features=768, out_features=3072, bias=True)
              (act): GELU(approximate='none')
              (fc2): Linear(in_features=3072, out_features=768, bias=True)
              (drop): Dropout(p=0.0, inplace=False)
            )
            (token_mixer): Pooling(
              (pool): AvgPool2d(kernel_size=3, stride=1, padding=1)
            )
          )
          (1): SwinTransformerBlock(
            dim=768, input_resolution=(1, 1), num_heads=24, window_size=1, shift_size=0, mlp_ratio=4.0
            (norm1): LayerNorm((768,), eps=1e-05, elementwise_affine=True)
            (drop_path): DropPath(drop_prob=0.100)
            (norm2): LayerNorm((768,), eps=1e-05, elementwise_affine=True)
            (mlp): Mlp(
              (fc1): Linear(in_features=768, out_features=3072, bias=True)
              (act): GELU(approximate='none')
              (fc2): Linear(in_features=3072, out_features=768, bias=True)
              (drop): Dropout(p=0.0, inplace=False)
            )
            (token_mixer): Pooling(
              (pool): AvgPool2d(kernel_size=3, stride=1, padding=1)
            )
          )
        )
      )
    )
    (norm): LayerNorm((768,), eps=1e-05, elementwise_affine=True)
    (avgpool): AdaptiveAvgPool1d(output_size=1)
    (head): Linear(in_features=768, out_features=10, bias=True)
  )
)
Student param size = 18.864298MB
args = Namespace(save_root='./results/try', img_root='./datasets', s_init='', t_model='checkpoint/swinoff-s-22pretrained-4-ckpt.t7', print_freq=50, epochs=200, batch_size=128, lr=0.1, momentum=0.9, weight_decay=0.0001, num_class=10, cuda=1, patch=4, dimhead=512, convkernel=8, size='32', seed=2, note='try', data_name='CIFAR10', t_name='swinoff-s', s_name='swinpool', kd_mode='logits', lambda_kd=1.0, T=4.0, p=2.0, w_dist=25.0, w_angle=50.0, m=2.0, gamma=0.4, P_order=2, w_irg_vert=0.1, w_irg_edge=5.0, w_irg_tran=5.0, sf=1.0, init_var=5.0, att_f=1.0)
unparsed_args = []
----------- Network Initialization --------------
Student: DataParallel(
  (module): SwinTransformer(
    (patch_embed): PatchEmbed(
      (proj): Conv2d(3, 96, kernel_size=(4, 4), stride=(4, 4))
      (norm): LayerNorm((96,), eps=1e-05, elementwise_affine=True)
    )
    (pos_drop): Dropout(p=0.0, inplace=False)
    (layers): ModuleList(
      (0): BasicLayer(
        dim=96, input_resolution=(8, 8), depth=2
        (blocks): ModuleList(
          (0): SwinTransformerBlock(
            dim=96, input_resolution=(8, 8), num_heads=3, window_size=4, shift_size=0, mlp_ratio=4.0
            (norm1): LayerNorm((96,), eps=1e-05, elementwise_affine=True)
            (drop_path): Identity()
            (norm2): LayerNorm((96,), eps=1e-05, elementwise_affine=True)
            (mlp): Mlp(
              (fc1): Linear(in_features=96, out_features=384, bias=True)
              (act): GELU(approximate='none')
              (fc2): Linear(in_features=384, out_features=96, bias=True)
              (drop): Dropout(p=0.0, inplace=False)
            )
            (token_mixer): Pooling(
              (pool): AvgPool2d(kernel_size=3, stride=1, padding=1)
            )
          )
          (1): SwinTransformerBlock(
            dim=96, input_resolution=(8, 8), num_heads=3, window_size=4, shift_size=2, mlp_ratio=4.0
            (norm1): LayerNorm((96,), eps=1e-05, elementwise_affine=True)
            (drop_path): DropPath(drop_prob=0.009)
            (norm2): LayerNorm((96,), eps=1e-05, elementwise_affine=True)
            (mlp): Mlp(
              (fc1): Linear(in_features=96, out_features=384, bias=True)
              (act): GELU(approximate='none')
              (fc2): Linear(in_features=384, out_features=96, bias=True)
              (drop): Dropout(p=0.0, inplace=False)
            )
            (token_mixer): Pooling(
              (pool): AvgPool2d(kernel_size=3, stride=1, padding=1)
            )
          )
        )
        (downsample): PatchMerging(
          input_resolution=(8, 8), dim=96
          (reduction): Linear(in_features=384, out_features=192, bias=False)
          (norm): LayerNorm((384,), eps=1e-05, elementwise_affine=True)
        )
      )
      (1): BasicLayer(
        dim=192, input_resolution=(4, 4), depth=2
        (blocks): ModuleList(
          (0): SwinTransformerBlock(
            dim=192, input_resolution=(4, 4), num_heads=6, window_size=4, shift_size=0, mlp_ratio=4.0
            (norm1): LayerNorm((192,), eps=1e-05, elementwise_affine=True)
            (drop_path): DropPath(drop_prob=0.018)
            (norm2): LayerNorm((192,), eps=1e-05, elementwise_affine=True)
            (mlp): Mlp(
              (fc1): Linear(in_features=192, out_features=768, bias=True)
              (act): GELU(approximate='none')
              (fc2): Linear(in_features=768, out_features=192, bias=True)
              (drop): Dropout(p=0.0, inplace=False)
            )
            (token_mixer): Pooling(
              (pool): AvgPool2d(kernel_size=3, stride=1, padding=1)
            )
          )
          (1): SwinTransformerBlock(
            dim=192, input_resolution=(4, 4), num_heads=6, window_size=4, shift_size=0, mlp_ratio=4.0
            (norm1): LayerNorm((192,), eps=1e-05, elementwise_affine=True)
            (drop_path): DropPath(drop_prob=0.027)
            (norm2): LayerNorm((192,), eps=1e-05, elementwise_affine=True)
            (mlp): Mlp(
              (fc1): Linear(in_features=192, out_features=768, bias=True)
              (act): GELU(approximate='none')
              (fc2): Linear(in_features=768, out_features=192, bias=True)
              (drop): Dropout(p=0.0, inplace=False)
            )
            (token_mixer): Pooling(
              (pool): AvgPool2d(kernel_size=3, stride=1, padding=1)
            )
          )
        )
        (downsample): PatchMerging(
          input_resolution=(4, 4), dim=192
          (reduction): Linear(in_features=768, out_features=384, bias=False)
          (norm): LayerNorm((768,), eps=1e-05, elementwise_affine=True)
        )
      )
      (2): BasicLayer(
        dim=384, input_resolution=(2, 2), depth=6
        (blocks): ModuleList(
          (0): SwinTransformerBlock(
            dim=384, input_resolution=(2, 2), num_heads=12, window_size=2, shift_size=0, mlp_ratio=4.0
            (norm1): LayerNorm((384,), eps=1e-05, elementwise_affine=True)
            (drop_path): DropPath(drop_prob=0.036)
            (norm2): LayerNorm((384,), eps=1e-05, elementwise_affine=True)
            (mlp): Mlp(
              (fc1): Linear(in_features=384, out_features=1536, bias=True)
              (act): GELU(approximate='none')
              (fc2): Linear(in_features=1536, out_features=384, bias=True)
              (drop): Dropout(p=0.0, inplace=False)
            )
            (token_mixer): Pooling(
              (pool): AvgPool2d(kernel_size=3, stride=1, padding=1)
            )
          )
          (1): SwinTransformerBlock(
            dim=384, input_resolution=(2, 2), num_heads=12, window_size=2, shift_size=0, mlp_ratio=4.0
            (norm1): LayerNorm((384,), eps=1e-05, elementwise_affine=True)
            (drop_path): DropPath(drop_prob=0.045)
            (norm2): LayerNorm((384,), eps=1e-05, elementwise_affine=True)
            (mlp): Mlp(
              (fc1): Linear(in_features=384, out_features=1536, bias=True)
              (act): GELU(approximate='none')
              (fc2): Linear(in_features=1536, out_features=384, bias=True)
              (drop): Dropout(p=0.0, inplace=False)
            )
            (token_mixer): Pooling(
              (pool): AvgPool2d(kernel_size=3, stride=1, padding=1)
            )
          )
          (2): SwinTransformerBlock(
            dim=384, input_resolution=(2, 2), num_heads=12, window_size=2, shift_size=0, mlp_ratio=4.0
            (norm1): LayerNorm((384,), eps=1e-05, elementwise_affine=True)
            (drop_path): DropPath(drop_prob=0.055)
            (norm2): LayerNorm((384,), eps=1e-05, elementwise_affine=True)
            (mlp): Mlp(
              (fc1): Linear(in_features=384, out_features=1536, bias=True)
              (act): GELU(approximate='none')
              (fc2): Linear(in_features=1536, out_features=384, bias=True)
              (drop): Dropout(p=0.0, inplace=False)
            )
            (token_mixer): Pooling(
              (pool): AvgPool2d(kernel_size=3, stride=1, padding=1)
            )
          )
          (3): SwinTransformerBlock(
            dim=384, input_resolution=(2, 2), num_heads=12, window_size=2, shift_size=0, mlp_ratio=4.0
            (norm1): LayerNorm((384,), eps=1e-05, elementwise_affine=True)
            (drop_path): DropPath(drop_prob=0.064)
            (norm2): LayerNorm((384,), eps=1e-05, elementwise_affine=True)
            (mlp): Mlp(
              (fc1): Linear(in_features=384, out_features=1536, bias=True)
              (act): GELU(approximate='none')
              (fc2): Linear(in_features=1536, out_features=384, bias=True)
              (drop): Dropout(p=0.0, inplace=False)
            )
            (token_mixer): Pooling(
              (pool): AvgPool2d(kernel_size=3, stride=1, padding=1)
            )
          )
          (4): SwinTransformerBlock(
            dim=384, input_resolution=(2, 2), num_heads=12, window_size=2, shift_size=0, mlp_ratio=4.0
            (norm1): LayerNorm((384,), eps=1e-05, elementwise_affine=True)
            (drop_path): DropPath(drop_prob=0.073)
            (norm2): LayerNorm((384,), eps=1e-05, elementwise_affine=True)
            (mlp): Mlp(
              (fc1): Linear(in_features=384, out_features=1536, bias=True)
              (act): GELU(approximate='none')
              (fc2): Linear(in_features=1536, out_features=384, bias=True)
              (drop): Dropout(p=0.0, inplace=False)
            )
            (token_mixer): Pooling(
              (pool): AvgPool2d(kernel_size=3, stride=1, padding=1)
            )
          )
          (5): SwinTransformerBlock(
            dim=384, input_resolution=(2, 2), num_heads=12, window_size=2, shift_size=0, mlp_ratio=4.0
            (norm1): LayerNorm((384,), eps=1e-05, elementwise_affine=True)
            (drop_path): DropPath(drop_prob=0.082)
            (norm2): LayerNorm((384,), eps=1e-05, elementwise_affine=True)
            (mlp): Mlp(
              (fc1): Linear(in_features=384, out_features=1536, bias=True)
              (act): GELU(approximate='none')
              (fc2): Linear(in_features=1536, out_features=384, bias=True)
              (drop): Dropout(p=0.0, inplace=False)
            )
            (token_mixer): Pooling(
              (pool): AvgPool2d(kernel_size=3, stride=1, padding=1)
            )
          )
        )
        (downsample): PatchMerging(
          input_resolution=(2, 2), dim=384
          (reduction): Linear(in_features=1536, out_features=768, bias=False)
          (norm): LayerNorm((1536,), eps=1e-05, elementwise_affine=True)
        )
      )
      (3): BasicLayer(
        dim=768, input_resolution=(1, 1), depth=2
        (blocks): ModuleList(
          (0): SwinTransformerBlock(
            dim=768, input_resolution=(1, 1), num_heads=24, window_size=1, shift_size=0, mlp_ratio=4.0
            (norm1): LayerNorm((768,), eps=1e-05, elementwise_affine=True)
            (drop_path): DropPath(drop_prob=0.091)
            (norm2): LayerNorm((768,), eps=1e-05, elementwise_affine=True)
            (mlp): Mlp(
              (fc1): Linear(in_features=768, out_features=3072, bias=True)
              (act): GELU(approximate='none')
              (fc2): Linear(in_features=3072, out_features=768, bias=True)
              (drop): Dropout(p=0.0, inplace=False)
            )
            (token_mixer): Pooling(
              (pool): AvgPool2d(kernel_size=3, stride=1, padding=1)
            )
          )
          (1): SwinTransformerBlock(
            dim=768, input_resolution=(1, 1), num_heads=24, window_size=1, shift_size=0, mlp_ratio=4.0
            (norm1): LayerNorm((768,), eps=1e-05, elementwise_affine=True)
            (drop_path): DropPath(drop_prob=0.100)
            (norm2): LayerNorm((768,), eps=1e-05, elementwise_affine=True)
            (mlp): Mlp(
              (fc1): Linear(in_features=768, out_features=3072, bias=True)
              (act): GELU(approximate='none')
              (fc2): Linear(in_features=3072, out_features=768, bias=True)
              (drop): Dropout(p=0.0, inplace=False)
            )
            (token_mixer): Pooling(
              (pool): AvgPool2d(kernel_size=3, stride=1, padding=1)
            )
          )
        )
      )
    )
    (norm): LayerNorm((768,), eps=1e-05, elementwise_affine=True)
    (avgpool): AdaptiveAvgPool1d(output_size=1)
    (head): Linear(in_features=768, out_features=10, bias=True)
  )
)
Student param size = 18.864298MB
args = Namespace(save_root='./results/try', img_root='./datasets', s_init='', t_model='checkpoint/swinoff-s-22pretrained-4-ckpt.t7', print_freq=50, epochs=200, batch_size=128, lr=0.1, momentum=0.9, weight_decay=0.0001, num_class=10, cuda=1, patch=4, dimhead=512, convkernel=8, size='32', seed=2, note='try', data_name='CIFAR10', t_name='swinoff-s', s_name='swinpool', kd_mode='logits', lambda_kd=1.0, T=4.0, p=2.0, w_dist=25.0, w_angle=50.0, m=2.0, gamma=0.4, P_order=2, w_irg_vert=0.1, w_irg_edge=5.0, w_irg_tran=5.0, sf=1.0, init_var=5.0, att_f=1.0)
unparsed_args = []
----------- Network Initialization --------------
Student: DataParallel(
  (module): SwinTransformer(
    (patch_embed): PatchEmbed(
      (proj): Conv2d(3, 96, kernel_size=(4, 4), stride=(4, 4))
      (norm): LayerNorm((96,), eps=1e-05, elementwise_affine=True)
    )
    (pos_drop): Dropout(p=0.0, inplace=False)
    (layers): ModuleList(
      (0): BasicLayer(
        dim=96, input_resolution=(8, 8), depth=2
        (blocks): ModuleList(
          (0): SwinTransformerBlock(
            dim=96, input_resolution=(8, 8), num_heads=3, window_size=4, shift_size=0, mlp_ratio=4.0
            (norm1): LayerNorm((96,), eps=1e-05, elementwise_affine=True)
            (drop_path): Identity()
            (norm2): LayerNorm((96,), eps=1e-05, elementwise_affine=True)
            (mlp): Mlp(
              (fc1): Linear(in_features=96, out_features=384, bias=True)
              (act): GELU(approximate='none')
              (fc2): Linear(in_features=384, out_features=96, bias=True)
              (drop): Dropout(p=0.0, inplace=False)
            )
            (token_mixer): Pooling(
              (pool): AvgPool2d(kernel_size=3, stride=1, padding=1)
            )
          )
          (1): SwinTransformerBlock(
            dim=96, input_resolution=(8, 8), num_heads=3, window_size=4, shift_size=2, mlp_ratio=4.0
            (norm1): LayerNorm((96,), eps=1e-05, elementwise_affine=True)
            (drop_path): DropPath(drop_prob=0.009)
            (norm2): LayerNorm((96,), eps=1e-05, elementwise_affine=True)
            (mlp): Mlp(
              (fc1): Linear(in_features=96, out_features=384, bias=True)
              (act): GELU(approximate='none')
              (fc2): Linear(in_features=384, out_features=96, bias=True)
              (drop): Dropout(p=0.0, inplace=False)
            )
            (token_mixer): Pooling(
              (pool): AvgPool2d(kernel_size=3, stride=1, padding=1)
            )
          )
        )
        (downsample): PatchMerging(
          input_resolution=(8, 8), dim=96
          (reduction): Linear(in_features=384, out_features=192, bias=False)
          (norm): LayerNorm((384,), eps=1e-05, elementwise_affine=True)
        )
      )
      (1): BasicLayer(
        dim=192, input_resolution=(4, 4), depth=2
        (blocks): ModuleList(
          (0): SwinTransformerBlock(
            dim=192, input_resolution=(4, 4), num_heads=6, window_size=4, shift_size=0, mlp_ratio=4.0
            (norm1): LayerNorm((192,), eps=1e-05, elementwise_affine=True)
            (drop_path): DropPath(drop_prob=0.018)
            (norm2): LayerNorm((192,), eps=1e-05, elementwise_affine=True)
            (mlp): Mlp(
              (fc1): Linear(in_features=192, out_features=768, bias=True)
              (act): GELU(approximate='none')
              (fc2): Linear(in_features=768, out_features=192, bias=True)
              (drop): Dropout(p=0.0, inplace=False)
            )
            (token_mixer): Pooling(
              (pool): AvgPool2d(kernel_size=3, stride=1, padding=1)
            )
          )
          (1): SwinTransformerBlock(
            dim=192, input_resolution=(4, 4), num_heads=6, window_size=4, shift_size=0, mlp_ratio=4.0
            (norm1): LayerNorm((192,), eps=1e-05, elementwise_affine=True)
            (drop_path): DropPath(drop_prob=0.027)
            (norm2): LayerNorm((192,), eps=1e-05, elementwise_affine=True)
            (mlp): Mlp(
              (fc1): Linear(in_features=192, out_features=768, bias=True)
              (act): GELU(approximate='none')
              (fc2): Linear(in_features=768, out_features=192, bias=True)
              (drop): Dropout(p=0.0, inplace=False)
            )
            (token_mixer): Pooling(
              (pool): AvgPool2d(kernel_size=3, stride=1, padding=1)
            )
          )
        )
        (downsample): PatchMerging(
          input_resolution=(4, 4), dim=192
          (reduction): Linear(in_features=768, out_features=384, bias=False)
          (norm): LayerNorm((768,), eps=1e-05, elementwise_affine=True)
        )
      )
      (2): BasicLayer(
        dim=384, input_resolution=(2, 2), depth=6
        (blocks): ModuleList(
          (0): SwinTransformerBlock(
            dim=384, input_resolution=(2, 2), num_heads=12, window_size=2, shift_size=0, mlp_ratio=4.0
            (norm1): LayerNorm((384,), eps=1e-05, elementwise_affine=True)
            (drop_path): DropPath(drop_prob=0.036)
            (norm2): LayerNorm((384,), eps=1e-05, elementwise_affine=True)
            (mlp): Mlp(
              (fc1): Linear(in_features=384, out_features=1536, bias=True)
              (act): GELU(approximate='none')
              (fc2): Linear(in_features=1536, out_features=384, bias=True)
              (drop): Dropout(p=0.0, inplace=False)
            )
            (token_mixer): Pooling(
              (pool): AvgPool2d(kernel_size=3, stride=1, padding=1)
            )
          )
          (1): SwinTransformerBlock(
            dim=384, input_resolution=(2, 2), num_heads=12, window_size=2, shift_size=0, mlp_ratio=4.0
            (norm1): LayerNorm((384,), eps=1e-05, elementwise_affine=True)
            (drop_path): DropPath(drop_prob=0.045)
            (norm2): LayerNorm((384,), eps=1e-05, elementwise_affine=True)
            (mlp): Mlp(
              (fc1): Linear(in_features=384, out_features=1536, bias=True)
              (act): GELU(approximate='none')
              (fc2): Linear(in_features=1536, out_features=384, bias=True)
              (drop): Dropout(p=0.0, inplace=False)
            )
            (token_mixer): Pooling(
              (pool): AvgPool2d(kernel_size=3, stride=1, padding=1)
            )
          )
          (2): SwinTransformerBlock(
            dim=384, input_resolution=(2, 2), num_heads=12, window_size=2, shift_size=0, mlp_ratio=4.0
            (norm1): LayerNorm((384,), eps=1e-05, elementwise_affine=True)
            (drop_path): DropPath(drop_prob=0.055)
            (norm2): LayerNorm((384,), eps=1e-05, elementwise_affine=True)
            (mlp): Mlp(
              (fc1): Linear(in_features=384, out_features=1536, bias=True)
              (act): GELU(approximate='none')
              (fc2): Linear(in_features=1536, out_features=384, bias=True)
              (drop): Dropout(p=0.0, inplace=False)
            )
            (token_mixer): Pooling(
              (pool): AvgPool2d(kernel_size=3, stride=1, padding=1)
            )
          )
          (3): SwinTransformerBlock(
            dim=384, input_resolution=(2, 2), num_heads=12, window_size=2, shift_size=0, mlp_ratio=4.0
            (norm1): LayerNorm((384,), eps=1e-05, elementwise_affine=True)
            (drop_path): DropPath(drop_prob=0.064)
            (norm2): LayerNorm((384,), eps=1e-05, elementwise_affine=True)
            (mlp): Mlp(
              (fc1): Linear(in_features=384, out_features=1536, bias=True)
              (act): GELU(approximate='none')
              (fc2): Linear(in_features=1536, out_features=384, bias=True)
              (drop): Dropout(p=0.0, inplace=False)
            )
            (token_mixer): Pooling(
              (pool): AvgPool2d(kernel_size=3, stride=1, padding=1)
            )
          )
          (4): SwinTransformerBlock(
            dim=384, input_resolution=(2, 2), num_heads=12, window_size=2, shift_size=0, mlp_ratio=4.0
            (norm1): LayerNorm((384,), eps=1e-05, elementwise_affine=True)
            (drop_path): DropPath(drop_prob=0.073)
            (norm2): LayerNorm((384,), eps=1e-05, elementwise_affine=True)
            (mlp): Mlp(
              (fc1): Linear(in_features=384, out_features=1536, bias=True)
              (act): GELU(approximate='none')
              (fc2): Linear(in_features=1536, out_features=384, bias=True)
              (drop): Dropout(p=0.0, inplace=False)
            )
            (token_mixer): Pooling(
              (pool): AvgPool2d(kernel_size=3, stride=1, padding=1)
            )
          )
          (5): SwinTransformerBlock(
            dim=384, input_resolution=(2, 2), num_heads=12, window_size=2, shift_size=0, mlp_ratio=4.0
            (norm1): LayerNorm((384,), eps=1e-05, elementwise_affine=True)
            (drop_path): DropPath(drop_prob=0.082)
            (norm2): LayerNorm((384,), eps=1e-05, elementwise_affine=True)
            (mlp): Mlp(
              (fc1): Linear(in_features=384, out_features=1536, bias=True)
              (act): GELU(approximate='none')
              (fc2): Linear(in_features=1536, out_features=384, bias=True)
              (drop): Dropout(p=0.0, inplace=False)
            )
            (token_mixer): Pooling(
              (pool): AvgPool2d(kernel_size=3, stride=1, padding=1)
            )
          )
        )
        (downsample): PatchMerging(
          input_resolution=(2, 2), dim=384
          (reduction): Linear(in_features=1536, out_features=768, bias=False)
          (norm): LayerNorm((1536,), eps=1e-05, elementwise_affine=True)
        )
      )
      (3): BasicLayer(
        dim=768, input_resolution=(1, 1), depth=2
        (blocks): ModuleList(
          (0): SwinTransformerBlock(
            dim=768, input_resolution=(1, 1), num_heads=24, window_size=1, shift_size=0, mlp_ratio=4.0
            (norm1): LayerNorm((768,), eps=1e-05, elementwise_affine=True)
            (drop_path): DropPath(drop_prob=0.091)
            (norm2): LayerNorm((768,), eps=1e-05, elementwise_affine=True)
            (mlp): Mlp(
              (fc1): Linear(in_features=768, out_features=3072, bias=True)
              (act): GELU(approximate='none')
              (fc2): Linear(in_features=3072, out_features=768, bias=True)
              (drop): Dropout(p=0.0, inplace=False)
            )
            (token_mixer): Pooling(
              (pool): AvgPool2d(kernel_size=3, stride=1, padding=1)
            )
          )
          (1): SwinTransformerBlock(
            dim=768, input_resolution=(1, 1), num_heads=24, window_size=1, shift_size=0, mlp_ratio=4.0
            (norm1): LayerNorm((768,), eps=1e-05, elementwise_affine=True)
            (drop_path): DropPath(drop_prob=0.100)
            (norm2): LayerNorm((768,), eps=1e-05, elementwise_affine=True)
            (mlp): Mlp(
              (fc1): Linear(in_features=768, out_features=3072, bias=True)
              (act): GELU(approximate='none')
              (fc2): Linear(in_features=3072, out_features=768, bias=True)
              (drop): Dropout(p=0.0, inplace=False)
            )
            (token_mixer): Pooling(
              (pool): AvgPool2d(kernel_size=3, stride=1, padding=1)
            )
          )
        )
      )
    )
    (norm): LayerNorm((768,), eps=1e-05, elementwise_affine=True)
    (avgpool): AdaptiveAvgPool1d(output_size=1)
    (head): Linear(in_features=768, out_features=10, bias=True)
  )
)
Student param size = 18.864298MB
args = Namespace(save_root='./results/try', img_root='./datasets', s_init='', t_model='checkpoint/swinoff-s-22pretrained-4-ckpt.t7', print_freq=50, epochs=200, batch_size=128, lr=0.1, momentum=0.9, weight_decay=0.0001, num_class=10, cuda=1, patch=4, dimhead=512, convkernel=8, size='32', seed=2, note='try', data_name='CIFAR10', t_name='swinoff-s', s_name='swinpool', kd_mode='logits', lambda_kd=1.0, T=4.0, p=2.0, w_dist=25.0, w_angle=50.0, m=2.0, gamma=0.4, P_order=2, w_irg_vert=0.1, w_irg_edge=5.0, w_irg_tran=5.0, sf=1.0, init_var=5.0, att_f=1.0)
unparsed_args = []
----------- Network Initialization --------------
Student: DataParallel(
  (module): SwinTransformer(
    (patch_embed): PatchEmbed(
      (proj): Conv2d(3, 96, kernel_size=(4, 4), stride=(4, 4))
      (norm): LayerNorm((96,), eps=1e-05, elementwise_affine=True)
    )
    (pos_drop): Dropout(p=0.0, inplace=False)
    (layers): ModuleList(
      (0): BasicLayer(
        dim=96, input_resolution=(8, 8), depth=2
        (blocks): ModuleList(
          (0): SwinTransformerBlock(
            dim=96, input_resolution=(8, 8), num_heads=3, window_size=4, shift_size=0, mlp_ratio=4.0
            (norm1): LayerNorm((96,), eps=1e-05, elementwise_affine=True)
            (drop_path): Identity()
            (norm2): LayerNorm((96,), eps=1e-05, elementwise_affine=True)
            (mlp): Mlp(
              (fc1): Linear(in_features=96, out_features=384, bias=True)
              (act): GELU(approximate='none')
              (fc2): Linear(in_features=384, out_features=96, bias=True)
              (drop): Dropout(p=0.0, inplace=False)
            )
            (token_mixer): Pooling(
              (pool): AvgPool2d(kernel_size=3, stride=1, padding=1)
            )
          )
          (1): SwinTransformerBlock(
            dim=96, input_resolution=(8, 8), num_heads=3, window_size=4, shift_size=2, mlp_ratio=4.0
            (norm1): LayerNorm((96,), eps=1e-05, elementwise_affine=True)
            (drop_path): DropPath(drop_prob=0.009)
…
              (proj_drop): Dropout(p=0.0, inplace=False)
              (softmax): Softmax(dim=-1)
            )
            (drop_path): DropPath(drop_prob=0.057)
            (norm2): LayerNorm((384,), eps=1e-05, elementwise_affine=True)
            (mlp): Mlp(
              (fc1): Linear(in_features=384, out_features=1536, bias=True)
              (act): GELU(approximate='none')
              (fc2): Linear(in_features=1536, out_features=384, bias=True)
              (drop): Dropout(p=0.0, inplace=False)
            )
          )
          (10): SwinTransformerBlock(
            dim=384, input_resolution=(2, 2), num_heads=12, window_size=2, shift_size=0, mlp_ratio=4.0
            (norm1): LayerNorm((384,), eps=1e-05, elementwise_affine=True)
            (attn): WindowAttention(
              dim=384, window_size=(2, 2), num_heads=12
              (qkv): Linear(in_features=384, out_features=1152, bias=True)
              (attn_drop): Dropout(p=0.0, inplace=False)
              (proj): Linear(in_features=384, out_features=384, bias=True)
              (proj_drop): Dropout(p=0.0, inplace=False)
              (softmax): Softmax(dim=-1)
            )
            (drop_path): DropPath(drop_prob=0.061)
            (norm2): LayerNorm((384,), eps=1e-05, elementwise_affine=True)
            (mlp): Mlp(
              (fc1): Linear(in_features=384, out_features=1536, bias=True)
              (act): GELU(approximate='none')
              (fc2): Linear(in_features=1536, out_features=384, bias=True)
              (drop): Dropout(p=0.0, inplace=False)
            )
          )
          (11): SwinTransformerBlock(
            dim=384, input_resolution=(2, 2), num_heads=12, window_size=2, shift_size=0, mlp_ratio=4.0
            (norm1): LayerNorm((384,), eps=1e-05, elementwise_affine=True)
            (attn): WindowAttention(
              dim=384, window_size=(2, 2), num_heads=12
              (qkv): Linear(in_features=384, out_features=1152, bias=True)
              (attn_drop): Dropout(p=0.0, inplace=False)
              (proj): Linear(in_features=384, out_features=384, bias=True)
              (proj_drop): Dropout(p=0.0, inplace=False)
              (softmax): Softmax(dim=-1)
            )
            (drop_path): DropPath(drop_prob=0.065)
            (norm2): LayerNorm((384,), eps=1e-05, elementwise_affine=True)
            (mlp): Mlp(
              (fc1): Linear(in_features=384, out_features=1536, bias=True)
              (act): GELU(approximate='none')
              (fc2): Linear(in_features=1536, out_features=384, bias=True)
              (drop): Dropout(p=0.0, inplace=False)
            )
          )
          (12): SwinTransformerBlock(
            dim=384, input_resolution=(2, 2), num_heads=12, window_size=2, shift_size=0, mlp_ratio=4.0
            (norm1): LayerNorm((384,), eps=1e-05, elementwise_affine=True)
            (attn): WindowAttention(
              dim=384, window_size=(2, 2), num_heads=12
              (qkv): Linear(in_features=384, out_features=1152, bias=True)
              (attn_drop): Dropout(p=0.0, inplace=False)
              (proj): Linear(in_features=384, out_features=384, bias=True)
              (proj_drop): Dropout(p=0.0, inplace=False)
              (softmax): Softmax(dim=-1)
            )
            (drop_path): DropPath(drop_prob=0.070)
            (norm2): LayerNorm((384,), eps=1e-05, elementwise_affine=True)
            (mlp): Mlp(
              (fc1): Linear(in_features=384, out_features=1536, bias=True)
              (act): GELU(approximate='none')
              (fc2): Linear(in_features=1536, out_features=384, bias=True)
              (drop): Dropout(p=0.0, inplace=False)
            )
          )
          (13): SwinTransformerBlock(
            dim=384, input_resolution=(2, 2), num_heads=12, window_size=2, shift_size=0, mlp_ratio=4.0
            (norm1): LayerNorm((384,), eps=1e-05, elementwise_affine=True)
            (attn): WindowAttention(
              dim=384, window_size=(2, 2), num_heads=12
              (qkv): Linear(in_features=384, out_features=1152, bias=True)
              (attn_drop): Dropout(p=0.0, inplace=False)
              (proj): Linear(in_features=384, out_features=384, bias=True)
              (proj_drop): Dropout(p=0.0, inplace=False)
              (softmax): Softmax(dim=-1)
            )
            (drop_path): DropPath(drop_prob=0.074)
            (norm2): LayerNorm((384,), eps=1e-05, elementwise_affine=True)
            (mlp): Mlp(
              (fc1): Linear(in_features=384, out_features=1536, bias=True)
              (act): GELU(approximate='none')
              (fc2): Linear(in_features=1536, out_features=384, bias=True)
              (drop): Dropout(p=0.0, inplace=False)
            )
          )
          (14): SwinTransformerBlock(
            dim=384, input_resolution=(2, 2), num_heads=12, window_size=2, shift_size=0, mlp_ratio=4.0
            (norm1): LayerNorm((384,), eps=1e-05, elementwise_affine=True)
            (attn): WindowAttention(
              dim=384, window_size=(2, 2), num_heads=12
              (qkv): Linear(in_features=384, out_features=1152, bias=True)
              (attn_drop): Dropout(p=0.0, inplace=False)
              (proj): Linear(in_features=384, out_features=384, bias=True)
              (proj_drop): Dropout(p=0.0, inplace=False)
              (softmax): Softmax(dim=-1)
            )
            (drop_path): DropPath(drop_prob=0.078)
            (norm2): LayerNorm((384,), eps=1e-05, elementwise_affine=True)
            (mlp): Mlp(
              (fc1): Linear(in_features=384, out_features=1536, bias=True)
              (act): GELU(approximate='none')
              (fc2): Linear(in_features=1536, out_features=384, bias=True)
              (drop): Dropout(p=0.0, inplace=False)
            )
          )
          (15): SwinTransformerBlock(
            dim=384, input_resolution=(2, 2), num_heads=12, window_size=2, shift_size=0, mlp_ratio=4.0
            (norm1): LayerNorm((384,), eps=1e-05, elementwise_affine=True)
            (attn): WindowAttention(
              dim=384, window_size=(2, 2), num_heads=12
              (qkv): Linear(in_features=384, out_features=1152, bias=True)
              (attn_drop): Dropout(p=0.0, inplace=False)
              (proj): Linear(in_features=384, out_features=384, bias=True)
              (proj_drop): Dropout(p=0.0, inplace=False)
              (softmax): Softmax(dim=-1)
            )
            (drop_path): DropPath(drop_prob=0.083)
            (norm2): LayerNorm((384,), eps=1e-05, elementwise_affine=True)
            (mlp): Mlp(
              (fc1): Linear(in_features=384, out_features=1536, bias=True)
              (act): GELU(approximate='none')
              (fc2): Linear(in_features=1536, out_features=384, bias=True)
              (drop): Dropout(p=0.0, inplace=False)
            )
          )
          (16): SwinTransformerBlock(
            dim=384, input_resolution=(2, 2), num_heads=12, window_size=2, shift_size=0, mlp_ratio=4.0
            (norm1): LayerNorm((384,), eps=1e-05, elementwise_affine=True)
            (attn): WindowAttention(
              dim=384, window_size=(2, 2), num_heads=12
              (qkv): Linear(in_features=384, out_features=1152, bias=True)
              (attn_drop): Dropout(p=0.0, inplace=False)
              (proj): Linear(in_features=384, out_features=384, bias=True)
              (proj_drop): Dropout(p=0.0, inplace=False)
              (softmax): Softmax(dim=-1)
            )
            (drop_path): DropPath(drop_prob=0.087)
            (norm2): LayerNorm((384,), eps=1e-05, elementwise_affine=True)
            (mlp): Mlp(
              (fc1): Linear(in_features=384, out_features=1536, bias=True)
              (act): GELU(approximate='none')
              (fc2): Linear(in_features=1536, out_features=384, bias=True)
              (drop): Dropout(p=0.0, inplace=False)
            )
          )
          (17): SwinTransformerBlock(
            dim=384, input_resolution=(2, 2), num_heads=12, window_size=2, shift_size=0, mlp_ratio=4.0
            (norm1): LayerNorm((384,), eps=1e-05, elementwise_affine=True)
            (attn): WindowAttention(
              dim=384, window_size=(2, 2), num_heads=12
              (qkv): Linear(in_features=384, out_features=1152, bias=True)
              (attn_drop): Dropout(p=0.0, inplace=False)
              (proj): Linear(in_features=384, out_features=384, bias=True)
              (proj_drop): Dropout(p=0.0, inplace=False)
              (softmax): Softmax(dim=-1)
            )
            (drop_path): DropPath(drop_prob=0.091)
            (norm2): LayerNorm((384,), eps=1e-05, elementwise_affine=True)
            (mlp): Mlp(
              (fc1): Linear(in_features=384, out_features=1536, bias=True)
              (act): GELU(approximate='none')
              (fc2): Linear(in_features=1536, out_features=384, bias=True)
              (drop): Dropout(p=0.0, inplace=False)
            )
          )
        )
        (downsample): PatchMerging(
          input_resolution=(2, 2), dim=384
          (reduction): Linear(in_features=1536, out_features=768, bias=False)
          (norm): LayerNorm((1536,), eps=1e-05, elementwise_affine=True)
        )
      )
      (3): BasicLayer(
        dim=768, input_resolution=(1, 1), depth=2
        (blocks): ModuleList(
          (0): SwinTransformerBlock(
            dim=768, input_resolution=(1, 1), num_heads=24, window_size=1, shift_size=0, mlp_ratio=4.0
            (norm1): LayerNorm((768,), eps=1e-05, elementwise_affine=True)
            (attn): WindowAttention(
              dim=768, window_size=(1, 1), num_heads=24
              (qkv): Linear(in_features=768, out_features=2304, bias=True)
              (attn_drop): Dropout(p=0.0, inplace=False)
              (proj): Linear(in_features=768, out_features=768, bias=True)
              (proj_drop): Dropout(p=0.0, inplace=False)
              (softmax): Softmax(dim=-1)
            )
            (drop_path): DropPath(drop_prob=0.096)
            (norm2): LayerNorm((768,), eps=1e-05, elementwise_affine=True)
            (mlp): Mlp(
              (fc1): Linear(in_features=768, out_features=3072, bias=True)
              (act): GELU(approximate='none')
              (fc2): Linear(in_features=3072, out_features=768, bias=True)
              (drop): Dropout(p=0.0, inplace=False)
            )
          )
          (1): SwinTransformerBlock(
            dim=768, input_resolution=(1, 1), num_heads=24, window_size=1, shift_size=0, mlp_ratio=4.0
            (norm1): LayerNorm((768,), eps=1e-05, elementwise_affine=True)
            (attn): WindowAttention(
              dim=768, window_size=(1, 1), num_heads=24
              (qkv): Linear(in_features=768, out_features=2304, bias=True)
              (attn_drop): Dropout(p=0.0, inplace=False)
              (proj): Linear(in_features=768, out_features=768, bias=True)
              (proj_drop): Dropout(p=0.0, inplace=False)
              (softmax): Softmax(dim=-1)
            )
            (drop_path): DropPath(drop_prob=0.100)
            (norm2): LayerNorm((768,), eps=1e-05, elementwise_affine=True)
            (mlp): Mlp(
              (fc1): Linear(in_features=768, out_features=3072, bias=True)
              (act): GELU(approximate='none')
              (fc2): Linear(in_features=3072, out_features=768, bias=True)
              (drop): Dropout(p=0.0, inplace=False)
            )
          )
        )
      )
    )
    (norm): LayerNorm((768,), eps=1e-05, elementwise_affine=True)
    (avgpool): AdaptiveAvgPool1d(output_size=1)
    (head): Linear(in_features=768, out_features=10, bias=True)
  )
)
Teacher param size = 48.800164MB
-----------------------------------------------
args = Namespace(save_root='./results/try', img_root='./datasets', s_init='', t_model='checkpoint/swinoff-s-22pretrained-4-ckpt.t7', print_freq=50, epochs=200, batch_size=128, lr=0.1, momentum=0.9, weight_decay=0.0001, num_class=10, cuda=1, patch=4, dimhead=512, convkernel=8, size='32', seed=2, note='try', data_name='cifar10', t_name='swinoff-s', s_name='swinpool', kd_mode='logits', lambda_kd=1.0, T=4.0, p=2.0, w_dist=25.0, w_angle=50.0, m=2.0, gamma=0.4, P_order=2, w_irg_vert=0.1, w_irg_edge=5.0, w_irg_tran=5.0, sf=1.0, init_var=5.0, att_f=1.0)
unparsed_args = []
----------- Network Initialization --------------
Student: DataParallel(
  (module): SwinTransformer(
    (patch_embed): PatchEmbed(
      (proj): Conv2d(3, 96, kernel_size=(4, 4), stride=(4, 4))
      (norm): LayerNorm((96,), eps=1e-05, elementwise_affine=True)
    )
    (pos_drop): Dropout(p=0.0, inplace=False)
    (layers): ModuleList(
      (0): BasicLayer(
        dim=96, input_resolution=(8, 8), depth=2
        (blocks): ModuleList(
          (0): SwinTransformerBlock(
            dim=96, input_resolution=(8, 8), num_heads=3, window_size=4, shift_size=0, mlp_ratio=4.0
            (norm1): LayerNorm((96,), eps=1e-05, elementwise_affine=True)
            (drop_path): Identity()
            (norm2): LayerNorm((96,), eps=1e-05, elementwise_affine=True)
            (mlp): Mlp(
              (fc1): Linear(in_features=96, out_features=384, bias=True)
              (act): GELU(approximate='none')
              (fc2): Linear(in_features=384, out_features=96, bias=True)
              (drop): Dropout(p=0.0, inplace=False)
            )
            (token_mixer): Pooling(
              (pool): AvgPool2d(kernel_size=3, stride=1, padding=1)
            )
          )
          (1): SwinTransformerBlock(
            dim=96, input_resolution=(8, 8), num_heads=3, window_size=4, shift_size=2, mlp_ratio=4.0
            (norm1): LayerNorm((96,), eps=1e-05, elementwise_affine=True)
            (drop_path): DropPath(drop_prob=0.009)
            (norm2): LayerNorm((96,), eps=1e-05, elementwise_affine=True)
            (mlp): Mlp(
              (fc1): Linear(in_features=96, out_features=384, bias=True)
              (act): GELU(approximate='none')
              (fc2): Linear(in_features=384, out_features=96, bias=True)
              (drop): Dropout(p=0.0, inplace=False)
            )
            (token_mixer): Pooling(
              (pool): AvgPool2d(kernel_size=3, stride=1, padding=1)
            )
          )
        )
        (downsample): PatchMerging(
          input_resolution=(8, 8), dim=96
          (reduction): Linear(in_features=384, out_features=192, bias=False)
          (norm): LayerNorm((384,), eps=1e-05, elementwise_affine=True)
        )
      )
      (1): BasicLayer(
        dim=192, input_resolution=(4, 4), depth=2
        (blocks): ModuleList(
          (0): SwinTransformerBlock(
            dim=192, input_resolution=(4, 4), num_heads=6, window_size=4, shift_size=0, mlp_ratio=4.0
            (norm1): LayerNorm((192,), eps=1e-05, elementwise_affine=True)
            (drop_path): DropPath(drop_prob=0.018)
            (norm2): LayerNorm((192,), eps=1e-05, elementwise_affine=True)
            (mlp): Mlp(
              (fc1): Linear(in_features=192, out_features=768, bias=True)
              (act): GELU(approximate='none')
              (fc2): Linear(in_features=768, out_features=192, bias=True)
              (drop): Dropout(p=0.0, inplace=False)
            )
            (token_mixer): Pooling(
              (pool): AvgPool2d(kernel_size=3, stride=1, padding=1)
            )
          )
          (1): SwinTransformerBlock(
            dim=192, input_resolution=(4, 4), num_heads=6, window_size=4, shift_size=0, mlp_ratio=4.0
            (norm1): LayerNorm((192,), eps=1e-05, elementwise_affine=True)
            (drop_path): DropPath(drop_prob=0.027)
            (norm2): LayerNorm((192,), eps=1e-05, elementwise_affine=True)
            (mlp): Mlp(
              (fc1): Linear(in_features=192, out_features=768, bias=True)
              (act): GELU(approximate='none')
              (fc2): Linear(in_features=768, out_features=192, bias=True)
              (drop): Dropout(p=0.0, inplace=False)
            )
            (token_mixer): Pooling(
              (pool): AvgPool2d(kernel_size=3, stride=1, padding=1)
            )
          )
        )
        (downsample): PatchMerging(
          input_resolution=(4, 4), dim=192
          (reduction): Linear(in_features=768, out_features=384, bias=False)
          (norm): LayerNorm((768,), eps=1e-05, elementwise_affine=True)
        )
      )
      (2): BasicLayer(
        dim=384, input_resolution=(2, 2), depth=6
        (blocks): ModuleList(
          (0): SwinTransformerBlock(
            dim=384, input_resolution=(2, 2), num_heads=12, window_size=2, shift_size=0, mlp_ratio=4.0
            (norm1): LayerNorm((384,), eps=1e-05, elementwise_affine=True)
            (drop_path): DropPath(drop_prob=0.036)
            (norm2): LayerNorm((384,), eps=1e-05, elementwise_affine=True)
            (mlp): Mlp(
              (fc1): Linear(in_features=384, out_features=1536, bias=True)
              (act): GELU(approximate='none')
              (fc2): Linear(in_features=1536, out_features=384, bias=True)
              (drop): Dropout(p=0.0, inplace=False)
            )
            (token_mixer): Pooling(
              (pool): AvgPool2d(kernel_size=3, stride=1, padding=1)
            )
          )
          (1): SwinTransformerBlock(
            dim=384, input_resolution=(2, 2), num_heads=12, window_size=2, shift_size=0, mlp_ratio=4.0
            (norm1): LayerNorm((384,), eps=1e-05, elementwise_affine=True)
            (drop_path): DropPath(drop_prob=0.045)
            (norm2): LayerNorm((384,), eps=1e-05, elementwise_affine=True)
            (mlp): Mlp(
              (fc1): Linear(in_features=384, out_features=1536, bias=True)
              (act): GELU(approximate='none')
              (fc2): Linear(in_features=1536, out_features=384, bias=True)
              (drop): Dropout(p=0.0, inplace=False)
            )
            (token_mixer): Pooling(
              (pool): AvgPool2d(kernel_size=3, stride=1, padding=1)
            )
          )
          (2): SwinTransformerBlock(
            dim=384, input_resolution=(2, 2), num_heads=12, window_size=2, shift_size=0, mlp_ratio=4.0
            (norm1): LayerNorm((384,), eps=1e-05, elementwise_affine=True)
            (drop_path): DropPath(drop_prob=0.055)
            (norm2): LayerNorm((384,), eps=1e-05, elementwise_affine=True)
            (mlp): Mlp(
              (fc1): Linear(in_features=384, out_features=1536, bias=True)
              (act): GELU(approximate='none')
              (fc2): Linear(in_features=1536, out_features=384, bias=True)
              (drop): Dropout(p=0.0, inplace=False)
            )
            (token_mixer): Pooling(
              (pool): AvgPool2d(kernel_size=3, stride=1, padding=1)
            )
          )
          (3): SwinTransformerBlock(
            dim=384, input_resolution=(2, 2), num_heads=12, window_size=2, shift_size=0, mlp_ratio=4.0
            (norm1): LayerNorm((384,), eps=1e-05, elementwise_affine=True)
            (drop_path): DropPath(drop_prob=0.064)
            (norm2): LayerNorm((384,), eps=1e-05, elementwise_affine=True)
            (mlp): Mlp(
              (fc1): Linear(in_features=384, out_features=1536, bias=True)
              (act): GELU(approximate='none')
              (fc2): Linear(in_features=1536, out_features=384, bias=True)
              (drop): Dropout(p=0.0, inplace=False)
            )
            (token_mixer): Pooling(
              (pool): AvgPool2d(kernel_size=3, stride=1, padding=1)
            )
          )
          (4): SwinTransformerBlock(
            dim=384, input_resolution=(2, 2), num_heads=12, window_size=2, shift_size=0, mlp_ratio=4.0
            (norm1): LayerNorm((384,), eps=1e-05, elementwise_affine=True)
            (drop_path): DropPath(drop_prob=0.073)
            (norm2): LayerNorm((384,), eps=1e-05, elementwise_affine=True)
            (mlp): Mlp(
              (fc1): Linear(in_features=384, out_features=1536, bias=True)
              (act): GELU(approximate='none')
              (fc2): Linear(in_features=1536, out_features=384, bias=True)
              (drop): Dropout(p=0.0, inplace=False)
            )
            (token_mixer): Pooling(
              (pool): AvgPool2d(kernel_size=3, stride=1, padding=1)
            )
          )
          (5): SwinTransformerBlock(
            dim=384, input_resolution=(2, 2), num_heads=12, window_size=2, shift_size=0, mlp_ratio=4.0
            (norm1): LayerNorm((384,), eps=1e-05, elementwise_affine=True)
            (drop_path): DropPath(drop_prob=0.082)
            (norm2): LayerNorm((384,), eps=1e-05, elementwise_affine=True)
            (mlp): Mlp(
              (fc1): Linear(in_features=384, out_features=1536, bias=True)
              (act): GELU(approximate='none')
              (fc2): Linear(in_features=1536, out_features=384, bias=True)
              (drop): Dropout(p=0.0, inplace=False)
            )
            (token_mixer): Pooling(
              (pool): AvgPool2d(kernel_size=3, stride=1, padding=1)
            )
          )
        )
        (downsample): PatchMerging(
          input_resolution=(2, 2), dim=384
          (reduction): Linear(in_features=1536, out_features=768, bias=False)
          (norm): LayerNorm((1536,), eps=1e-05, elementwise_affine=True)
        )
      )
      (3): BasicLayer(
        dim=768, input_resolution=(1, 1), depth=2
        (blocks): ModuleList(
          (0): SwinTransformerBlock(
            dim=768, input_resolution=(1, 1), num_heads=24, window_size=1, shift_size=0, mlp_ratio=4.0
            (norm1): LayerNorm((768,), eps=1e-05, elementwise_affine=True)
            (drop_path): DropPath(drop_prob=0.091)
            (norm2): LayerNorm((768,), eps=1e-05, elementwise_affine=True)
            (mlp): Mlp(
              (fc1): Linear(in_features=768, out_features=3072, bias=True)
              (act): GELU(approximate='none')
              (fc2): Linear(in_features=3072, out_features=768, bias=True)
              (drop): Dropout(p=0.0, inplace=False)
            )
            (token_mixer): Pooling(
              (pool): AvgPool2d(kernel_size=3, stride=1, padding=1)
            )
          )
          (1): SwinTransformerBlock(
            dim=768, input_resolution=(1, 1), num_heads=24, window_size=1, shift_size=0, mlp_ratio=4.0
            (norm1): LayerNorm((768,), eps=1e-05, elementwise_affine=True)
            (drop_path): DropPath(drop_prob=0.100)
            (norm2): LayerNorm((768,), eps=1e-05, elementwise_affine=True)
            (mlp): Mlp(
              (fc1): Linear(in_features=768, out_features=3072, bias=True)
              (act): GELU(approximate='none')
              (fc2): Linear(in_features=3072, out_features=768, bias=True)
              (drop): Dropout(p=0.0, inplace=False)
            )
            (token_mixer): Pooling(
              (pool): AvgPool2d(kernel_size=3, stride=1, padding=1)
            )
          )
        )
      )
    )
    (norm): LayerNorm((768,), eps=1e-05, elementwise_affine=True)
    (avgpool): AdaptiveAvgPool1d(output_size=1)
    (head): Linear(in_features=768, out_features=10, bias=True)
  )
)
Student param size = 18.864298MB
Teacher: DataParallel(
  (module): SwinTransformer(
    (patch_embed): PatchEmbed(
      (proj): Conv2d(3, 96, kernel_size=(4, 4), stride=(4, 4))
      (norm): LayerNorm((96,), eps=1e-05, elementwise_affine=True)
    )
    (pos_drop): Dropout(p=0.0, inplace=False)
    (layers): ModuleList(
      (0): BasicLayer(
        dim=96, input_resolution=(8, 8), depth=2
        (blocks): ModuleList(
          (0): SwinTransformerBlock(
            dim=96, input_resolution=(8, 8), num_heads=3, window_size=4, shift_size=0, mlp_ratio=4.0
            (norm1): LayerNorm((96,), eps=1e-05, elementwise_affine=True)
            (attn): WindowAttention(
              dim=96, window_size=(4, 4), num_heads=3
              (qkv): Linear(in_features=96, out_features=288, bias=True)
              (attn_drop): Dropout(p=0.0, inplace=False)
              (proj): Linear(in_features=96, out_features=96, bias=True)
              (proj_drop): Dropout(p=0.0, inplace=False)
              (softmax): Softmax(dim=-1)
            )
            (drop_path): Identity()
            (norm2): LayerNorm((96,), eps=1e-05, elementwise_affine=True)
            (mlp): Mlp(
              (fc1): Linear(in_features=96, out_features=384, bias=True)
              (act): GELU(approximate='none')
              (fc2): Linear(in_features=384, out_features=96, bias=True)
              (drop): Dropout(p=0.0, inplace=False)
            )
          )
          (1): SwinTransformerBlock(
            dim=96, input_resolution=(8, 8), num_heads=3, window_size=4, shift_size=2, mlp_ratio=4.0
            (norm1): LayerNorm((96,), eps=1e-05, elementwise_affine=True)
            (attn): WindowAttention(
              dim=96, window_size=(4, 4), num_heads=3
              (qkv): Linear(in_features=96, out_features=288, bias=True)
              (attn_drop): Dropout(p=0.0, inplace=False)
              (proj): Linear(in_features=96, out_features=96, bias=True)
              (proj_drop): Dropout(p=0.0, inplace=False)
              (softmax): Softmax(dim=-1)
            )
            (drop_path): DropPath(drop_prob=0.004)
            (norm2): LayerNorm((96,), eps=1e-05, elementwise_affine=True)
            (mlp): Mlp(
              (fc1): Linear(in_features=96, out_features=384, bias=True)
              (act): GELU(approximate='none')
              (fc2): Linear(in_features=384, out_features=96, bias=True)
              (drop): Dropout(p=0.0, inplace=False)
            )
          )
        )
        (downsample): PatchMerging(
          input_resolution=(8, 8), dim=96
          (reduction): Linear(in_features=384, out_features=192, bias=False)
          (norm): LayerNorm((384,), eps=1e-05, elementwise_affine=True)
        )
      )
      (1): BasicLayer(
        dim=192, input_resolution=(4, 4), depth=2
        (blocks): ModuleList(
          (0): SwinTransformerBlock(
            dim=192, input_resolution=(4, 4), num_heads=6, window_size=4, shift_size=0, mlp_ratio=4.0
            (norm1): LayerNorm((192,), eps=1e-05, elementwise_affine=True)
            (attn): WindowAttention(
              dim=192, window_size=(4, 4), num_heads=6
              (qkv): Linear(in_features=192, out_features=576, bias=True)
              (attn_drop): Dropout(p=0.0, inplace=False)
              (proj): Linear(in_features=192, out_features=192, bias=True)
              (proj_drop): Dropout(p=0.0, inplace=False)
              (softmax): Softmax(dim=-1)
            )
            (drop_path): DropPath(drop_prob=0.009)
            (norm2): LayerNorm((192,), eps=1e-05, elementwise_affine=True)
            (mlp): Mlp(
              (fc1): Linear(in_features=192, out_features=768, bias=True)
              (act): GELU(approximate='none')
              (fc2): Linear(in_features=768, out_features=192, bias=True)
              (drop): Dropout(p=0.0, inplace=False)
            )
          )
          (1): SwinTransformerBlock(
            dim=192, input_resolution=(4, 4), num_heads=6, window_size=4, shift_size=0, mlp_ratio=4.0
            (norm1): LayerNorm((192,), eps=1e-05, elementwise_affine=True)
            (attn): WindowAttention(
              dim=192, window_size=(4, 4), num_heads=6
              (qkv): Linear(in_features=192, out_features=576, bias=True)
              (attn_drop): Dropout(p=0.0, inplace=False)
              (proj): Linear(in_features=192, out_features=192, bias=True)
              (proj_drop): Dropout(p=0.0, inplace=False)
              (softmax): Softmax(dim=-1)
            )
            (drop_path): DropPath(drop_prob=0.013)
            (norm2): LayerNorm((192,), eps=1e-05, elementwise_affine=True)
            (mlp): Mlp(
              (fc1): Linear(in_features=192, out_features=768, bias=True)
              (act): GELU(approximate='none')
              (fc2): Linear(in_features=768, out_features=192, bias=True)
              (drop): Dropout(p=0.0, inplace=False)
            )
          )
        )
        (downsample): PatchMerging(
          input_resolution=(4, 4), dim=192
          (reduction): Linear(in_features=768, out_features=384, bias=False)
          (norm): LayerNorm((768,), eps=1e-05, elementwise_affine=True)
        )
      )
      (2): BasicLayer(
        dim=384, input_resolution=(2, 2), depth=18
        (blocks): ModuleList(
          (0): SwinTransformerBlock(
            dim=384, input_resolution=(2, 2), num_heads=12, window_size=2, shift_size=0, mlp_ratio=4.0
            (norm1): LayerNorm((384,), eps=1e-05, elementwise_affine=True)
            (attn): WindowAttention(
              dim=384, window_size=(2, 2), num_heads=12
              (qkv): Linear(in_features=384, out_features=1152, bias=True)
              (attn_drop): Dropout(p=0.0, inplace=False)
              (proj): Linear(in_features=384, out_features=384, bias=True)
              (proj_drop): Dropout(p=0.0, inplace=False)
              (softmax): Softmax(dim=-1)
            )
            (drop_path): DropPath(drop_prob=0.017)
            (norm2): LayerNorm((384,), eps=1e-05, elementwise_affine=True)
            (mlp): Mlp(
              (fc1): Linear(in_features=384, out_features=1536, bias=True)
              (act): GELU(approximate='none')
              (fc2): Linear(in_features=1536, out_features=384, bias=True)
              (drop): Dropout(p=0.0, inplace=False)
            )
          )
          (1): SwinTransformerBlock(
            dim=384, input_resolution=(2, 2), num_heads=12, window_size=2, shift_size=0, mlp_ratio=4.0
            (norm1): LayerNorm((384,), eps=1e-05, elementwise_affine=True)
            (attn): WindowAttention(
              dim=384, window_size=(2, 2), num_heads=12
              (qkv): Linear(in_features=384, out_features=1152, bias=True)
              (attn_drop): Dropout(p=0.0, inplace=False)
              (proj): Linear(in_features=384, out_features=384, bias=True)
              (proj_drop): Dropout(p=0.0, inplace=False)
              (softmax): Softmax(dim=-1)
            )
            (drop_path): DropPath(drop_prob=0.022)
            (norm2): LayerNorm((384,), eps=1e-05, elementwise_affine=True)
            (mlp): Mlp(
              (fc1): Linear(in_features=384, out_features=1536, bias=True)
              (act): GELU(approximate='none')
              (fc2): Linear(in_features=1536, out_features=384, bias=True)
              (drop): Dropout(p=0.0, inplace=False)
            )
          )
          (2): SwinTransformerBlock(
            dim=384, input_resolution=(2, 2), num_heads=12, window_size=2, shift_size=0, mlp_ratio=4.0
            (norm1): LayerNorm((384,), eps=1e-05, elementwise_affine=True)
            (attn): WindowAttention(
              dim=384, window_size=(2, 2), num_heads=12
              (qkv): Linear(in_features=384, out_features=1152, bias=True)
              (attn_drop): Dropout(p=0.0, inplace=False)
              (proj): Linear(in_features=384, out_features=384, bias=True)
              (proj_drop): Dropout(p=0.0, inplace=False)
              (softmax): Softmax(dim=-1)
            )
            (drop_path): DropPath(drop_prob=0.026)
            (norm2): LayerNorm((384,), eps=1e-05, elementwise_affine=True)
            (mlp): Mlp(
              (fc1): Linear(in_features=384, out_features=1536, bias=True)
              (act): GELU(approximate='none')
              (fc2): Linear(in_features=1536, out_features=384, bias=True)
              (drop): Dropout(p=0.0, inplace=False)
            )
          )
          (3): SwinTransformerBlock(
            dim=384, input_resolution=(2, 2), num_heads=12, window_size=2, shift_size=0, mlp_ratio=4.0
            (norm1): LayerNorm((384,), eps=1e-05, elementwise_affine=True)
            (attn): WindowAttention(
              dim=384, window_size=(2, 2), num_heads=12
              (qkv): Linear(in_features=384, out_features=1152, bias=True)
              (attn_drop): Dropout(p=0.0, inplace=False)
              (proj): Linear(in_features=384, out_features=384, bias=True)
              (proj_drop): Dropout(p=0.0, inplace=False)
              (softmax): Softmax(dim=-1)
            )
            (drop_path): DropPath(drop_prob=0.030)
            (norm2): LayerNorm((384,), eps=1e-05, elementwise_affine=True)
            (mlp): Mlp(
              (fc1): Linear(in_features=384, out_features=1536, bias=True)
              (act): GELU(approximate='none')
              (fc2): Linear(in_features=1536, out_features=384, bias=True)
              (drop): Dropout(p=0.0, inplace=False)
            )
          )
          (4): SwinTransformerBlock(
            dim=384, input_resolution=(2, 2), num_heads=12, window_size=2, shift_size=0, mlp_ratio=4.0
            (norm1): LayerNorm((384,), eps=1e-05, elementwise_affine=True)
            (attn): WindowAttention(
              dim=384, window_size=(2, 2), num_heads=12
              (qkv): Linear(in_features=384, out_features=1152, bias=True)
              (attn_drop): Dropout(p=0.0, inplace=False)
              (proj): Linear(in_features=384, out_features=384, bias=True)
              (proj_drop): Dropout(p=0.0, inplace=False)
              (softmax): Softmax(dim=-1)
            )
            (drop_path): DropPath(drop_prob=0.035)
            (norm2): LayerNorm((384,), eps=1e-05, elementwise_affine=True)
            (mlp): Mlp(
              (fc1): Linear(in_features=384, out_features=1536, bias=True)
              (act): GELU(approximate='none')
              (fc2): Linear(in_features=1536, out_features=384, bias=True)
              (drop): Dropout(p=0.0, inplace=False)
            )
          )
          (5): SwinTransformerBlock(
            dim=384, input_resolution=(2, 2), num_heads=12, window_size=2, shift_size=0, mlp_ratio=4.0
            (norm1): LayerNorm((384,), eps=1e-05, elementwise_affine=True)
            (attn): WindowAttention(
              dim=384, window_size=(2, 2), num_heads=12
              (qkv): Linear(in_features=384, out_features=1152, bias=True)
              (attn_drop): Dropout(p=0.0, inplace=False)
              (proj): Linear(in_features=384, out_features=384, bias=True)
              (proj_drop): Dropout(p=0.0, inplace=False)
              (softmax): Softmax(dim=-1)
            )
            (drop_path): DropPath(drop_prob=0.039)
            (norm2): LayerNorm((384,), eps=1e-05, elementwise_affine=True)
            (mlp): Mlp(
              (fc1): Linear(in_features=384, out_features=1536, bias=True)
              (act): GELU(approximate='none')
              (fc2): Linear(in_features=1536, out_features=384, bias=True)
              (drop): Dropout(p=0.0, inplace=False)
            )
          )
          (6): SwinTransformerBlock(
            dim=384, input_resolution=(2, 2), num_heads=12, window_size=2, shift_size=0, mlp_ratio=4.0
            (norm1): LayerNorm((384,), eps=1e-05, elementwise_affine=True)
            (attn): WindowAttention(
              dim=384, window_size=(2, 2), num_heads=12
              (qkv): Linear(in_features=384, out_features=1152, bias=True)
              (attn_drop): Dropout(p=0.0, inplace=False)
              (proj): Linear(in_features=384, out_features=384, bias=True)
              (proj_drop): Dropout(p=0.0, inplace=False)
              (softmax): Softmax(dim=-1)
            )
            (drop_path): DropPath(drop_prob=0.043)
            (norm2): LayerNorm((384,), eps=1e-05, elementwise_affine=True)
            (mlp): Mlp(
              (fc1): Linear(in_features=384, out_features=1536, bias=True)
              (act): GELU(approximate='none')
              (fc2): Linear(in_features=1536, out_features=384, bias=True)
              (drop): Dropout(p=0.0, inplace=False)
            )
          )
          (7): SwinTransformerBlock(
            dim=384, input_resolution=(2, 2), num_heads=12, window_size=2, shift_size=0, mlp_ratio=4.0
            (norm1): LayerNorm((384,), eps=1e-05, elementwise_affine=True)
            (attn): WindowAttention(
              dim=384, window_size=(2, 2), num_heads=12
              (qkv): Linear(in_features=384, out_features=1152, bias=True)
              (attn_drop): Dropout(p=0.0, inplace=False)
              (proj): Linear(in_features=384, out_features=384, bias=True)
              (proj_drop): Dropout(p=0.0, inplace=False)
              (softmax): Softmax(dim=-1)
            )
            (drop_path): DropPath(drop_prob=0.048)
            (norm2): LayerNorm((384,), eps=1e-05, elementwise_affine=True)
            (mlp): Mlp(
              (fc1): Linear(in_features=384, out_features=1536, bias=True)
              (act): GELU(approximate='none')
              (fc2): Linear(in_features=1536, out_features=384, bias=True)
              (drop): Dropout(p=0.0, inplace=False)
            )
          )
          (8): SwinTransformerBlock(
            dim=384, input_resolution=(2, 2), num_heads=12, window_size=2, shift_size=0, mlp_ratio=4.0
            (norm1): LayerNorm((384,), eps=1e-05, elementwise_affine=True)
            (attn): WindowAttention(
              dim=384, window_size=(2, 2), num_heads=12
              (qkv): Linear(in_features=384, out_features=1152, bias=True)
              (attn_drop): Dropout(p=0.0, inplace=False)
              (proj): Linear(in_features=384, out_features=384, bias=True)
              (proj_drop): Dropout(p=0.0, inplace=False)
              (softmax): Softmax(dim=-1)
            )
            (drop_path): DropPath(drop_prob=0.052)
            (norm2): LayerNorm((384,), eps=1e-05, elementwise_affine=True)
            (mlp): Mlp(
              (fc1): Linear(in_features=384, out_features=1536, bias=True)
              (act): GELU(approximate='none')
              (fc2): Linear(in_features=1536, out_features=384, bias=True)
              (drop): Dropout(p=0.0, inplace=False)
            )
          )
          (9): SwinTransformerBlock(
            dim=384, input_resolution=(2, 2), num_heads=12, window_size=2, shift_size=0, mlp_ratio=4.0
            (norm1): LayerNorm((384,), eps=1e-05, elementwise_affine=True)
            (attn): WindowAttention(
              dim=384, window_size=(2, 2), num_heads=12
              (qkv): Linear(in_features=384, out_features=1152, bias=True)
              (attn_drop): Dropout(p=0.0, inplace=False)
              (proj): Linear(in_features=384, out_features=384, bias=True)
              (proj_drop): Dropout(p=0.0, inplace=False)
              (softmax): Softmax(dim=-1)
            )
            (drop_path): DropPath(drop_prob=0.057)
            (norm2): LayerNorm((384,), eps=1e-05, elementwise_affine=True)
            (mlp): Mlp(
              (fc1): Linear(in_features=384, out_features=1536, bias=True)
              (act): GELU(approximate='none')
              (fc2): Linear(in_features=1536, out_features=384, bias=True)
              (drop): Dropout(p=0.0, inplace=False)
            )
          )
          (10): SwinTransformerBlock(
            dim=384, input_resolution=(2, 2), num_heads=12, window_size=2, shift_size=0, mlp_ratio=4.0
            (norm1): LayerNorm((384,), eps=1e-05, elementwise_affine=True)
            (attn): WindowAttention(
              dim=384, window_size=(2, 2), num_heads=12
              (qkv): Linear(in_features=384, out_features=1152, bias=True)
              (attn_drop): Dropout(p=0.0, inplace=False)
              (proj): Linear(in_features=384, out_features=384, bias=True)
              (proj_drop): Dropout(p=0.0, inplace=False)
              (softmax): Softmax(dim=-1)
            )
            (drop_path): DropPath(drop_prob=0.061)
            (norm2): LayerNorm((384,), eps=1e-05, elementwise_affine=True)
            (mlp): Mlp(
              (fc1): Linear(in_features=384, out_features=1536, bias=True)
              (act): GELU(approximate='none')
              (fc2): Linear(in_features=1536, out_features=384, bias=True)
              (drop): Dropout(p=0.0, inplace=False)
            )
          )
          (11): SwinTransformerBlock(
            dim=384, input_resolution=(2, 2), num_heads=12, window_size=2, shift_size=0, mlp_ratio=4.0
            (norm1): LayerNorm((384,), eps=1e-05, elementwise_affine=True)
            (attn): WindowAttention(
              dim=384, window_size=(2, 2), num_heads=12
              (qkv): Linear(in_features=384, out_features=1152, bias=True)
              (attn_drop): Dropout(p=0.0, inplace=False)
              (proj): Linear(in_features=384, out_features=384, bias=True)
              (proj_drop): Dropout(p=0.0, inplace=False)
              (softmax): Softmax(dim=-1)
            )
            (drop_path): DropPath(drop_prob=0.065)
            (norm2): LayerNorm((384,), eps=1e-05, elementwise_affine=True)
            (mlp): Mlp(
              (fc1): Linear(in_features=384, out_features=1536, bias=True)
              (act): GELU(approximate='none')
              (fc2): Linear(in_features=1536, out_features=384, bias=True)
              (drop): Dropout(p=0.0, inplace=False)
            )
          )
          (12): SwinTransformerBlock(
            dim=384, input_resolution=(2, 2), num_heads=12, window_size=2, shift_size=0, mlp_ratio=4.0
            (norm1): LayerNorm((384,), eps=1e-05, elementwise_affine=True)
            (attn): WindowAttention(
              dim=384, window_size=(2, 2), num_heads=12
              (qkv): Linear(in_features=384, out_features=1152, bias=True)
              (attn_drop): Dropout(p=0.0, inplace=False)
              (proj): Linear(in_features=384, out_features=384, bias=True)
              (proj_drop): Dropout(p=0.0, inplace=False)
              (softmax): Softmax(dim=-1)
            )
            (drop_path): DropPath(drop_prob=0.070)
            (norm2): LayerNorm((384,), eps=1e-05, elementwise_affine=True)
            (mlp): Mlp(
              (fc1): Linear(in_features=384, out_features=1536, bias=True)
              (act): GELU(approximate='none')
              (fc2): Linear(in_features=1536, out_features=384, bias=True)
              (drop): Dropout(p=0.0, inplace=False)
            )
          )
          (13): SwinTransformerBlock(
            dim=384, input_resolution=(2, 2), num_heads=12, window_size=2, shift_size=0, mlp_ratio=4.0
            (norm1): LayerNorm((384,), eps=1e-05, elementwise_affine=True)
            (attn): WindowAttention(
              dim=384, window_size=(2, 2), num_heads=12
              (qkv): Linear(in_features=384, out_features=1152, bias=True)
              (attn_drop): Dropout(p=0.0, inplace=False)
              (proj): Linear(in_features=384, out_features=384, bias=True)
              (proj_drop): Dropout(p=0.0, inplace=False)
              (softmax): Softmax(dim=-1)
            )
            (drop_path): DropPath(drop_prob=0.074)
            (norm2): LayerNorm((384,), eps=1e-05, elementwise_affine=True)
            (mlp): Mlp(
              (fc1): Linear(in_features=384, out_features=1536, bias=True)
              (act): GELU(approximate='none')
              (fc2): Linear(in_features=1536, out_features=384, bias=True)
              (drop): Dropout(p=0.0, inplace=False)
            )
          )
          (14): SwinTransformerBlock(
            dim=384, input_resolution=(2, 2), num_heads=12, window_size=2, shift_size=0, mlp_ratio=4.0
            (norm1): LayerNorm((384,), eps=1e-05, elementwise_affine=True)
            (attn): WindowAttention(
              dim=384, window_size=(2, 2), num_heads=12
              (qkv): Linear(in_features=384, out_features=1152, bias=True)
              (attn_drop): Dropout(p=0.0, inplace=False)
              (proj): Linear(in_features=384, out_features=384, bias=True)
              (proj_drop): Dropout(p=0.0, inplace=False)
              (softmax): Softmax(dim=-1)
            )
            (drop_path): DropPath(drop_prob=0.078)
            (norm2): LayerNorm((384,), eps=1e-05, elementwise_affine=True)
            (mlp): Mlp(
              (fc1): Linear(in_features=384, out_features=1536, bias=True)
              (act): GELU(approximate='none')
              (fc2): Linear(in_features=1536, out_features=384, bias=True)
              (drop): Dropout(p=0.0, inplace=False)
            )
          )
          (15): SwinTransformerBlock(
            dim=384, input_resolution=(2, 2), num_heads=12, window_size=2, shift_size=0, mlp_ratio=4.0
            (norm1): LayerNorm((384,), eps=1e-05, elementwise_affine=True)
            (attn): WindowAttention(
              dim=384, window_size=(2, 2), num_heads=12
              (qkv): Linear(in_features=384, out_features=1152, bias=True)
              (attn_drop): Dropout(p=0.0, inplace=False)
              (proj): Linear(in_features=384, out_features=384, bias=True)
              (proj_drop): Dropout(p=0.0, inplace=False)
              (softmax): Softmax(dim=-1)
            )
            (drop_path): DropPath(drop_prob=0.083)
            (norm2): LayerNorm((384,), eps=1e-05, elementwise_affine=True)
            (mlp): Mlp(
              (fc1): Linear(in_features=384, out_features=1536, bias=True)
              (act): GELU(approximate='none')
              (fc2): Linear(in_features=1536, out_features=384, bias=True)
              (drop): Dropout(p=0.0, inplace=False)
            )
          )
          (16): SwinTransformerBlock(
            dim=384, input_resolution=(2, 2), num_heads=12, window_size=2, shift_size=0, mlp_ratio=4.0
            (norm1): LayerNorm((384,), eps=1e-05, elementwise_affine=True)
            (attn): WindowAttention(
              dim=384, window_size=(2, 2), num_heads=12
              (qkv): Linear(in_features=384, out_features=1152, bias=True)
              (attn_drop): Dropout(p=0.0, inplace=False)
              (proj): Linear(in_features=384, out_features=384, bias=True)
              (proj_drop): Dropout(p=0.0, inplace=False)
              (softmax): Softmax(dim=-1)
            )
            (drop_path): DropPath(drop_prob=0.087)
            (norm2): LayerNorm((384,), eps=1e-05, elementwise_affine=True)
            (mlp): Mlp(
              (fc1): Linear(in_features=384, out_features=1536, bias=True)
              (act): GELU(approximate='none')
              (fc2): Linear(in_features=1536, out_features=384, bias=True)
              (drop): Dropout(p=0.0, inplace=False)
            )
          )
          (17): SwinTransformerBlock(
            dim=384, input_resolution=(2, 2), num_heads=12, window_size=2, shift_size=0, mlp_ratio=4.0
            (norm1): LayerNorm((384,), eps=1e-05, elementwise_affine=True)
            (attn): WindowAttention(
              dim=384, window_size=(2, 2), num_heads=12
              (qkv): Linear(in_features=384, out_features=1152, bias=True)
              (attn_drop): Dropout(p=0.0, inplace=False)
              (proj): Linear(in_features=384, out_features=384, bias=True)
              (proj_drop): Dropout(p=0.0, inplace=False)
              (softmax): Softmax(dim=-1)
            )
            (drop_path): DropPath(drop_prob=0.091)
            (norm2): LayerNorm((384,), eps=1e-05, elementwise_affine=True)
            (mlp): Mlp(
              (fc1): Linear(in_features=384, out_features=1536, bias=True)
              (act): GELU(approximate='none')
              (fc2): Linear(in_features=1536, out_features=384, bias=True)
              (drop): Dropout(p=0.0, inplace=False)
            )
          )
        )
        (downsample): PatchMerging(
          input_resolution=(2, 2), dim=384
          (reduction): Linear(in_features=1536, out_features=768, bias=False)
          (norm): LayerNorm((1536,), eps=1e-05, elementwise_affine=True)
        )
      )
      (3): BasicLayer(
        dim=768, input_resolution=(1, 1), depth=2
        (blocks): ModuleList(
          (0): SwinTransformerBlock(
            dim=768, input_resolution=(1, 1), num_heads=24, window_size=1, shift_size=0, mlp_ratio=4.0
            (norm1): LayerNorm((768,), eps=1e-05, elementwise_affine=True)
            (attn): WindowAttention(
              dim=768, window_size=(1, 1), num_heads=24
              (qkv): Linear(in_features=768, out_features=2304, bias=True)
              (attn_drop): Dropout(p=0.0, inplace=False)
              (proj): Linear(in_features=768, out_features=768, bias=True)
              (proj_drop): Dropout(p=0.0, inplace=False)
              (softmax): Softmax(dim=-1)
            )
            (drop_path): DropPath(drop_prob=0.096)
            (norm2): LayerNorm((768,), eps=1e-05, elementwise_affine=True)
            (mlp): Mlp(
              (fc1): Linear(in_features=768, out_features=3072, bias=True)
              (act): GELU(approximate='none')
              (fc2): Linear(in_features=3072, out_features=768, bias=True)
              (drop): Dropout(p=0.0, inplace=False)
            )
          )
          (1): SwinTransformerBlock(
            dim=768, input_resolution=(1, 1), num_heads=24, window_size=1, shift_size=0, mlp_ratio=4.0
            (norm1): LayerNorm((768,), eps=1e-05, elementwise_affine=True)
            (attn): WindowAttention(
              dim=768, window_size=(1, 1), num_heads=24
              (qkv): Linear(in_features=768, out_features=2304, bias=True)
              (attn_drop): Dropout(p=0.0, inplace=False)
              (proj): Linear(in_features=768, out_features=768, bias=True)
              (proj_drop): Dropout(p=0.0, inplace=False)
              (softmax): Softmax(dim=-1)
            )
            (drop_path): DropPath(drop_prob=0.100)
            (norm2): LayerNorm((768,), eps=1e-05, elementwise_affine=True)
            (mlp): Mlp(
              (fc1): Linear(in_features=768, out_features=3072, bias=True)
              (act): GELU(approximate='none')
              (fc2): Linear(in_features=3072, out_features=768, bias=True)
              (drop): Dropout(p=0.0, inplace=False)
            )
          )
        )
      )
    )
    (norm): LayerNorm((768,), eps=1e-05, elementwise_affine=True)
    (avgpool): AdaptiveAvgPool1d(output_size=1)
    (head): Linear(in_features=768, out_features=10, bias=True)
  )
)
Teacher param size = 48.800164MB
-----------------------------------------------
Epoch: 1  lr: 0.100
